node {
  name: "input/x-input"
  op: "Placeholder"
  attr {
    key: "_output_shapes"
    value {
      list {
        shape {
          dim {
            size: -1
          }
          dim {
            size: 784
          }
        }
      }
    }
  }
  attr {
    key: "dtype"
    value {
      type: DT_FLOAT
    }
  }
  attr {
    key: "shape"
    value {
      shape {
      }
    }
  }
}
node {
  name: "input/Reshape/shape"
  op: "Const"
  attr {
    key: "_output_shapes"
    value {
      list {
        shape {
          dim {
            size: 4
          }
        }
      }
    }
  }
  attr {
    key: "dtype"
    value {
      type: DT_INT32
    }
  }
  attr {
    key: "value"
    value {
      tensor {
        dtype: DT_INT32
        tensor_shape {
          dim {
            size: 4
          }
        }
        tensor_content: "\377\377\377\377\034\000\000\000\034\000\000\000\001\000\000\000"
      }
    }
  }
}
node {
  name: "input/Reshape"
  op: "Reshape"
  input: "input/x-input"
  input: "input/Reshape/shape"
  attr {
    key: "T"
    value {
      type: DT_FLOAT
    }
  }
  attr {
    key: "_output_shapes"
    value {
      list {
        shape {
          dim {
            size: -1
          }
          dim {
            size: 28
          }
          dim {
            size: 28
          }
          dim {
            size: 1
          }
        }
      }
    }
  }
}
node {
  name: "input/ImageSummary/tag"
  op: "Const"
  attr {
    key: "_output_shapes"
    value {
      list {
        shape {
        }
      }
    }
  }
  attr {
    key: "dtype"
    value {
      type: DT_STRING
    }
  }
  attr {
    key: "value"
    value {
      tensor {
        dtype: DT_STRING
        tensor_shape {
        }
        string_val: "input"
      }
    }
  }
}
node {
  name: "input/ImageSummary"
  op: "ImageSummary"
  input: "input/ImageSummary/tag"
  input: "input/Reshape"
  attr {
    key: "T"
    value {
      type: DT_FLOAT
    }
  }
  attr {
    key: "_output_shapes"
    value {
      list {
        shape {
        }
      }
    }
  }
  attr {
    key: "bad_color"
    value {
      tensor {
        dtype: DT_UINT8
        tensor_shape {
          dim {
            size: 4
          }
        }
        int_val: 255
        int_val: 0
        int_val: 0
        int_val: 255
      }
    }
  }
  attr {
    key: "max_images"
    value {
      i: 10
    }
  }
}
node {
  name: "input/y-input"
  op: "Placeholder"
  attr {
    key: "_output_shapes"
    value {
      list {
        shape {
          dim {
            size: -1
          }
          dim {
            size: 10
          }
        }
      }
    }
  }
  attr {
    key: "dtype"
    value {
      type: DT_FLOAT
    }
  }
  attr {
    key: "shape"
    value {
      shape {
      }
    }
  }
}
node {
  name: "input/Placeholder"
  op: "Placeholder"
  attr {
    key: "_output_shapes"
    value {
      list {
        shape {
          unknown_rank: true
        }
      }
    }
  }
  attr {
    key: "dtype"
    value {
      type: DT_FLOAT
    }
  }
  attr {
    key: "shape"
    value {
      shape {
      }
    }
  }
}
node {
  name: "input/ScalarSummary/tags"
  op: "Const"
  attr {
    key: "_output_shapes"
    value {
      list {
        shape {
        }
      }
    }
  }
  attr {
    key: "dtype"
    value {
      type: DT_STRING
    }
  }
  attr {
    key: "value"
    value {
      tensor {
        dtype: DT_STRING
        tensor_shape {
        }
        string_val: "dropout_keep_probability"
      }
    }
  }
}
node {
  name: "input/ScalarSummary"
  op: "ScalarSummary"
  input: "input/ScalarSummary/tags"
  input: "input/Placeholder"
  attr {
    key: "T"
    value {
      type: DT_FLOAT
    }
  }
  attr {
    key: "_output_shapes"
    value {
      list {
        shape {
        }
      }
    }
  }
}
node {
  name: "layer1/weights/truncated_normal/shape"
  op: "Const"
  attr {
    key: "_output_shapes"
    value {
      list {
        shape {
          dim {
            size: 2
          }
        }
      }
    }
  }
  attr {
    key: "dtype"
    value {
      type: DT_INT32
    }
  }
  attr {
    key: "value"
    value {
      tensor {
        dtype: DT_INT32
        tensor_shape {
          dim {
            size: 2
          }
        }
        tensor_content: "\020\003\000\0002\000\000\000"
      }
    }
  }
}
node {
  name: "layer1/weights/truncated_normal/mean"
  op: "Const"
  attr {
    key: "_output_shapes"
    value {
      list {
        shape {
        }
      }
    }
  }
  attr {
    key: "dtype"
    value {
      type: DT_FLOAT
    }
  }
  attr {
    key: "value"
    value {
      tensor {
        dtype: DT_FLOAT
        tensor_shape {
        }
        float_val: 0.0
      }
    }
  }
}
node {
  name: "layer1/weights/truncated_normal/stddev"
  op: "Const"
  attr {
    key: "_output_shapes"
    value {
      list {
        shape {
        }
      }
    }
  }
  attr {
    key: "dtype"
    value {
      type: DT_FLOAT
    }
  }
  attr {
    key: "value"
    value {
      tensor {
        dtype: DT_FLOAT
        tensor_shape {
        }
        float_val: 0.10000000149
      }
    }
  }
}
node {
  name: "layer1/weights/truncated_normal/TruncatedNormal"
  op: "TruncatedNormal"
  input: "layer1/weights/truncated_normal/shape"
  attr {
    key: "T"
    value {
      type: DT_INT32
    }
  }
  attr {
    key: "_output_shapes"
    value {
      list {
        shape {
          dim {
            size: 784
          }
          dim {
            size: 50
          }
        }
      }
    }
  }
  attr {
    key: "dtype"
    value {
      type: DT_FLOAT
    }
  }
  attr {
    key: "seed"
    value {
      i: 0
    }
  }
  attr {
    key: "seed2"
    value {
      i: 0
    }
  }
}
node {
  name: "layer1/weights/truncated_normal/mul"
  op: "Mul"
  input: "layer1/weights/truncated_normal/TruncatedNormal"
  input: "layer1/weights/truncated_normal/stddev"
  attr {
    key: "T"
    value {
      type: DT_FLOAT
    }
  }
  attr {
    key: "_output_shapes"
    value {
      list {
        shape {
          dim {
            size: 784
          }
          dim {
            size: 50
          }
        }
      }
    }
  }
}
node {
  name: "layer1/weights/truncated_normal"
  op: "Add"
  input: "layer1/weights/truncated_normal/mul"
  input: "layer1/weights/truncated_normal/mean"
  attr {
    key: "T"
    value {
      type: DT_FLOAT
    }
  }
  attr {
    key: "_output_shapes"
    value {
      list {
        shape {
          dim {
            size: 784
          }
          dim {
            size: 50
          }
        }
      }
    }
  }
}
node {
  name: "layer1/weights/Variable"
  op: "Variable"
  attr {
    key: "_output_shapes"
    value {
      list {
        shape {
          dim {
            size: 784
          }
          dim {
            size: 50
          }
        }
      }
    }
  }
  attr {
    key: "container"
    value {
      s: ""
    }
  }
  attr {
    key: "dtype"
    value {
      type: DT_FLOAT
    }
  }
  attr {
    key: "shape"
    value {
      shape {
        dim {
          size: 784
        }
        dim {
          size: 50
        }
      }
    }
  }
  attr {
    key: "shared_name"
    value {
      s: ""
    }
  }
}
node {
  name: "layer1/weights/Variable/Assign"
  op: "Assign"
  input: "layer1/weights/Variable"
  input: "layer1/weights/truncated_normal"
  attr {
    key: "T"
    value {
      type: DT_FLOAT
    }
  }
  attr {
    key: "_class"
    value {
      list {
        s: "loc:@layer1/weights/Variable"
      }
    }
  }
  attr {
    key: "_output_shapes"
    value {
      list {
        shape {
          dim {
            size: 784
          }
          dim {
            size: 50
          }
        }
      }
    }
  }
  attr {
    key: "use_locking"
    value {
      b: true
    }
  }
  attr {
    key: "validate_shape"
    value {
      b: true
    }
  }
}
node {
  name: "layer1/weights/Variable/read"
  op: "Identity"
  input: "layer1/weights/Variable"
  attr {
    key: "T"
    value {
      type: DT_FLOAT
    }
  }
  attr {
    key: "_class"
    value {
      list {
        s: "loc:@layer1/weights/Variable"
      }
    }
  }
  attr {
    key: "_output_shapes"
    value {
      list {
        shape {
          dim {
            size: 784
          }
          dim {
            size: 50
          }
        }
      }
    }
  }
}
node {
  name: "layer1/weights/summaries/Rank"
  op: "Rank"
  input: "layer1/weights/Variable/read"
  attr {
    key: "T"
    value {
      type: DT_FLOAT
    }
  }
  attr {
    key: "_output_shapes"
    value {
      list {
        shape {
        }
      }
    }
  }
}
node {
  name: "layer1/weights/summaries/range/start"
  op: "Const"
  attr {
    key: "_output_shapes"
    value {
      list {
        shape {
        }
      }
    }
  }
  attr {
    key: "dtype"
    value {
      type: DT_INT32
    }
  }
  attr {
    key: "value"
    value {
      tensor {
        dtype: DT_INT32
        tensor_shape {
        }
        int_val: 0
      }
    }
  }
}
node {
  name: "layer1/weights/summaries/range/delta"
  op: "Const"
  attr {
    key: "_output_shapes"
    value {
      list {
        shape {
        }
      }
    }
  }
  attr {
    key: "dtype"
    value {
      type: DT_INT32
    }
  }
  attr {
    key: "value"
    value {
      tensor {
        dtype: DT_INT32
        tensor_shape {
        }
        int_val: 1
      }
    }
  }
}
node {
  name: "layer1/weights/summaries/range"
  op: "Range"
  input: "layer1/weights/summaries/range/start"
  input: "layer1/weights/summaries/Rank"
  input: "layer1/weights/summaries/range/delta"
  attr {
    key: "_output_shapes"
    value {
      list {
        shape {
          dim {
            size: 2
          }
        }
      }
    }
  }
}
node {
  name: "layer1/weights/summaries/Mean"
  op: "Mean"
  input: "layer1/weights/Variable/read"
  input: "layer1/weights/summaries/range"
  attr {
    key: "T"
    value {
      type: DT_FLOAT
    }
  }
  attr {
    key: "_output_shapes"
    value {
      list {
        shape {
        }
      }
    }
  }
  attr {
    key: "keep_dims"
    value {
      b: false
    }
  }
}
node {
  name: "layer1/weights/summaries/ScalarSummary/tags"
  op: "Const"
  attr {
    key: "_output_shapes"
    value {
      list {
        shape {
        }
      }
    }
  }
  attr {
    key: "dtype"
    value {
      type: DT_STRING
    }
  }
  attr {
    key: "value"
    value {
      tensor {
        dtype: DT_STRING
        tensor_shape {
        }
        string_val: "mean/layer1/weights"
      }
    }
  }
}
node {
  name: "layer1/weights/summaries/ScalarSummary"
  op: "ScalarSummary"
  input: "layer1/weights/summaries/ScalarSummary/tags"
  input: "layer1/weights/summaries/Mean"
  attr {
    key: "T"
    value {
      type: DT_FLOAT
    }
  }
  attr {
    key: "_output_shapes"
    value {
      list {
        shape {
        }
      }
    }
  }
}
node {
  name: "layer1/weights/summaries/stddev/sub"
  op: "Sub"
  input: "layer1/weights/Variable/read"
  input: "layer1/weights/summaries/Mean"
  attr {
    key: "T"
    value {
      type: DT_FLOAT
    }
  }
  attr {
    key: "_output_shapes"
    value {
      list {
        shape {
          dim {
            size: 784
          }
          dim {
            size: 50
          }
        }
      }
    }
  }
}
node {
  name: "layer1/weights/summaries/stddev/Square"
  op: "Square"
  input: "layer1/weights/summaries/stddev/sub"
  attr {
    key: "T"
    value {
      type: DT_FLOAT
    }
  }
  attr {
    key: "_output_shapes"
    value {
      list {
        shape {
          dim {
            size: 784
          }
          dim {
            size: 50
          }
        }
      }
    }
  }
}
node {
  name: "layer1/weights/summaries/stddev/Rank"
  op: "Rank"
  input: "layer1/weights/summaries/stddev/Square"
  attr {
    key: "T"
    value {
      type: DT_FLOAT
    }
  }
  attr {
    key: "_output_shapes"
    value {
      list {
        shape {
        }
      }
    }
  }
}
node {
  name: "layer1/weights/summaries/stddev/range/start"
  op: "Const"
  attr {
    key: "_output_shapes"
    value {
      list {
        shape {
        }
      }
    }
  }
  attr {
    key: "dtype"
    value {
      type: DT_INT32
    }
  }
  attr {
    key: "value"
    value {
      tensor {
        dtype: DT_INT32
        tensor_shape {
        }
        int_val: 0
      }
    }
  }
}
node {
  name: "layer1/weights/summaries/stddev/range/delta"
  op: "Const"
  attr {
    key: "_output_shapes"
    value {
      list {
        shape {
        }
      }
    }
  }
  attr {
    key: "dtype"
    value {
      type: DT_INT32
    }
  }
  attr {
    key: "value"
    value {
      tensor {
        dtype: DT_INT32
        tensor_shape {
        }
        int_val: 1
      }
    }
  }
}
node {
  name: "layer1/weights/summaries/stddev/range"
  op: "Range"
  input: "layer1/weights/summaries/stddev/range/start"
  input: "layer1/weights/summaries/stddev/Rank"
  input: "layer1/weights/summaries/stddev/range/delta"
  attr {
    key: "_output_shapes"
    value {
      list {
        shape {
          dim {
            size: 2
          }
        }
      }
    }
  }
}
node {
  name: "layer1/weights/summaries/stddev/Sum"
  op: "Sum"
  input: "layer1/weights/summaries/stddev/Square"
  input: "layer1/weights/summaries/stddev/range"
  attr {
    key: "T"
    value {
      type: DT_FLOAT
    }
  }
  attr {
    key: "_output_shapes"
    value {
      list {
        shape {
        }
      }
    }
  }
  attr {
    key: "keep_dims"
    value {
      b: false
    }
  }
}
node {
  name: "layer1/weights/summaries/stddev/Sqrt"
  op: "Sqrt"
  input: "layer1/weights/summaries/stddev/Sum"
  attr {
    key: "T"
    value {
      type: DT_FLOAT
    }
  }
  attr {
    key: "_output_shapes"
    value {
      list {
        shape {
        }
      }
    }
  }
}
node {
  name: "layer1/weights/summaries/ScalarSummary_1/tags"
  op: "Const"
  attr {
    key: "_output_shapes"
    value {
      list {
        shape {
        }
      }
    }
  }
  attr {
    key: "dtype"
    value {
      type: DT_STRING
    }
  }
  attr {
    key: "value"
    value {
      tensor {
        dtype: DT_STRING
        tensor_shape {
        }
        string_val: "sttdev/layer1/weights"
      }
    }
  }
}
node {
  name: "layer1/weights/summaries/ScalarSummary_1"
  op: "ScalarSummary"
  input: "layer1/weights/summaries/ScalarSummary_1/tags"
  input: "layer1/weights/summaries/stddev/Sqrt"
  attr {
    key: "T"
    value {
      type: DT_FLOAT
    }
  }
  attr {
    key: "_output_shapes"
    value {
      list {
        shape {
        }
      }
    }
  }
}
node {
  name: "layer1/weights/summaries/Rank_1"
  op: "Rank"
  input: "layer1/weights/Variable/read"
  attr {
    key: "T"
    value {
      type: DT_FLOAT
    }
  }
  attr {
    key: "_output_shapes"
    value {
      list {
        shape {
        }
      }
    }
  }
}
node {
  name: "layer1/weights/summaries/range_1/start"
  op: "Const"
  attr {
    key: "_output_shapes"
    value {
      list {
        shape {
        }
      }
    }
  }
  attr {
    key: "dtype"
    value {
      type: DT_INT32
    }
  }
  attr {
    key: "value"
    value {
      tensor {
        dtype: DT_INT32
        tensor_shape {
        }
        int_val: 0
      }
    }
  }
}
node {
  name: "layer1/weights/summaries/range_1/delta"
  op: "Const"
  attr {
    key: "_output_shapes"
    value {
      list {
        shape {
        }
      }
    }
  }
  attr {
    key: "dtype"
    value {
      type: DT_INT32
    }
  }
  attr {
    key: "value"
    value {
      tensor {
        dtype: DT_INT32
        tensor_shape {
        }
        int_val: 1
      }
    }
  }
}
node {
  name: "layer1/weights/summaries/range_1"
  op: "Range"
  input: "layer1/weights/summaries/range_1/start"
  input: "layer1/weights/summaries/Rank_1"
  input: "layer1/weights/summaries/range_1/delta"
  attr {
    key: "_output_shapes"
    value {
      list {
        shape {
          dim {
            size: 2
          }
        }
      }
    }
  }
}
node {
  name: "layer1/weights/summaries/Max"
  op: "Max"
  input: "layer1/weights/Variable/read"
  input: "layer1/weights/summaries/range_1"
  attr {
    key: "T"
    value {
      type: DT_FLOAT
    }
  }
  attr {
    key: "_output_shapes"
    value {
      list {
        shape {
        }
      }
    }
  }
  attr {
    key: "keep_dims"
    value {
      b: false
    }
  }
}
node {
  name: "layer1/weights/summaries/ScalarSummary_2/tags"
  op: "Const"
  attr {
    key: "_output_shapes"
    value {
      list {
        shape {
        }
      }
    }
  }
  attr {
    key: "dtype"
    value {
      type: DT_STRING
    }
  }
  attr {
    key: "value"
    value {
      tensor {
        dtype: DT_STRING
        tensor_shape {
        }
        string_val: "max/layer1/weights"
      }
    }
  }
}
node {
  name: "layer1/weights/summaries/ScalarSummary_2"
  op: "ScalarSummary"
  input: "layer1/weights/summaries/ScalarSummary_2/tags"
  input: "layer1/weights/summaries/Max"
  attr {
    key: "T"
    value {
      type: DT_FLOAT
    }
  }
  attr {
    key: "_output_shapes"
    value {
      list {
        shape {
        }
      }
    }
  }
}
node {
  name: "layer1/weights/summaries/Rank_2"
  op: "Rank"
  input: "layer1/weights/Variable/read"
  attr {
    key: "T"
    value {
      type: DT_FLOAT
    }
  }
  attr {
    key: "_output_shapes"
    value {
      list {
        shape {
        }
      }
    }
  }
}
node {
  name: "layer1/weights/summaries/range_2/start"
  op: "Const"
  attr {
    key: "_output_shapes"
    value {
      list {
        shape {
        }
      }
    }
  }
  attr {
    key: "dtype"
    value {
      type: DT_INT32
    }
  }
  attr {
    key: "value"
    value {
      tensor {
        dtype: DT_INT32
        tensor_shape {
        }
        int_val: 0
      }
    }
  }
}
node {
  name: "layer1/weights/summaries/range_2/delta"
  op: "Const"
  attr {
    key: "_output_shapes"
    value {
      list {
        shape {
        }
      }
    }
  }
  attr {
    key: "dtype"
    value {
      type: DT_INT32
    }
  }
  attr {
    key: "value"
    value {
      tensor {
        dtype: DT_INT32
        tensor_shape {
        }
        int_val: 1
      }
    }
  }
}
node {
  name: "layer1/weights/summaries/range_2"
  op: "Range"
  input: "layer1/weights/summaries/range_2/start"
  input: "layer1/weights/summaries/Rank_2"
  input: "layer1/weights/summaries/range_2/delta"
  attr {
    key: "_output_shapes"
    value {
      list {
        shape {
          dim {
            size: 2
          }
        }
      }
    }
  }
}
node {
  name: "layer1/weights/summaries/Min"
  op: "Min"
  input: "layer1/weights/Variable/read"
  input: "layer1/weights/summaries/range_2"
  attr {
    key: "T"
    value {
      type: DT_FLOAT
    }
  }
  attr {
    key: "_output_shapes"
    value {
      list {
        shape {
        }
      }
    }
  }
  attr {
    key: "keep_dims"
    value {
      b: false
    }
  }
}
node {
  name: "layer1/weights/summaries/ScalarSummary_3/tags"
  op: "Const"
  attr {
    key: "_output_shapes"
    value {
      list {
        shape {
        }
      }
    }
  }
  attr {
    key: "dtype"
    value {
      type: DT_STRING
    }
  }
  attr {
    key: "value"
    value {
      tensor {
        dtype: DT_STRING
        tensor_shape {
        }
        string_val: "min/layer1/weights"
      }
    }
  }
}
node {
  name: "layer1/weights/summaries/ScalarSummary_3"
  op: "ScalarSummary"
  input: "layer1/weights/summaries/ScalarSummary_3/tags"
  input: "layer1/weights/summaries/Min"
  attr {
    key: "T"
    value {
      type: DT_FLOAT
    }
  }
  attr {
    key: "_output_shapes"
    value {
      list {
        shape {
        }
      }
    }
  }
}
node {
  name: "layer1/weights/summaries/HistogramSummary/tag"
  op: "Const"
  attr {
    key: "_output_shapes"
    value {
      list {
        shape {
        }
      }
    }
  }
  attr {
    key: "dtype"
    value {
      type: DT_STRING
    }
  }
  attr {
    key: "value"
    value {
      tensor {
        dtype: DT_STRING
        tensor_shape {
        }
        string_val: "layer1/weights"
      }
    }
  }
}
node {
  name: "layer1/weights/summaries/HistogramSummary"
  op: "HistogramSummary"
  input: "layer1/weights/summaries/HistogramSummary/tag"
  input: "layer1/weights/Variable/read"
  attr {
    key: "T"
    value {
      type: DT_FLOAT
    }
  }
  attr {
    key: "_output_shapes"
    value {
      list {
        shape {
        }
      }
    }
  }
}
node {
  name: "layer1/biases/Const"
  op: "Const"
  attr {
    key: "_output_shapes"
    value {
      list {
        shape {
          dim {
            size: 50
          }
        }
      }
    }
  }
  attr {
    key: "dtype"
    value {
      type: DT_FLOAT
    }
  }
  attr {
    key: "value"
    value {
      tensor {
        dtype: DT_FLOAT
        tensor_shape {
          dim {
            size: 50
          }
        }
        float_val: 0.10000000149
      }
    }
  }
}
node {
  name: "layer1/biases/Variable"
  op: "Variable"
  attr {
    key: "_output_shapes"
    value {
      list {
        shape {
          dim {
            size: 50
          }
        }
      }
    }
  }
  attr {
    key: "container"
    value {
      s: ""
    }
  }
  attr {
    key: "dtype"
    value {
      type: DT_FLOAT
    }
  }
  attr {
    key: "shape"
    value {
      shape {
        dim {
          size: 50
        }
      }
    }
  }
  attr {
    key: "shared_name"
    value {
      s: ""
    }
  }
}
node {
  name: "layer1/biases/Variable/Assign"
  op: "Assign"
  input: "layer1/biases/Variable"
  input: "layer1/biases/Const"
  attr {
    key: "T"
    value {
      type: DT_FLOAT
    }
  }
  attr {
    key: "_class"
    value {
      list {
        s: "loc:@layer1/biases/Variable"
      }
    }
  }
  attr {
    key: "_output_shapes"
    value {
      list {
        shape {
          dim {
            size: 50
          }
        }
      }
    }
  }
  attr {
    key: "use_locking"
    value {
      b: true
    }
  }
  attr {
    key: "validate_shape"
    value {
      b: true
    }
  }
}
node {
  name: "layer1/biases/Variable/read"
  op: "Identity"
  input: "layer1/biases/Variable"
  attr {
    key: "T"
    value {
      type: DT_FLOAT
    }
  }
  attr {
    key: "_class"
    value {
      list {
        s: "loc:@layer1/biases/Variable"
      }
    }
  }
  attr {
    key: "_output_shapes"
    value {
      list {
        shape {
          dim {
            size: 50
          }
        }
      }
    }
  }
}
node {
  name: "layer1/biases/summaries/Rank"
  op: "Rank"
  input: "layer1/biases/Variable/read"
  attr {
    key: "T"
    value {
      type: DT_FLOAT
    }
  }
  attr {
    key: "_output_shapes"
    value {
      list {
        shape {
        }
      }
    }
  }
}
node {
  name: "layer1/biases/summaries/range/start"
  op: "Const"
  attr {
    key: "_output_shapes"
    value {
      list {
        shape {
        }
      }
    }
  }
  attr {
    key: "dtype"
    value {
      type: DT_INT32
    }
  }
  attr {
    key: "value"
    value {
      tensor {
        dtype: DT_INT32
        tensor_shape {
        }
        int_val: 0
      }
    }
  }
}
node {
  name: "layer1/biases/summaries/range/delta"
  op: "Const"
  attr {
    key: "_output_shapes"
    value {
      list {
        shape {
        }
      }
    }
  }
  attr {
    key: "dtype"
    value {
      type: DT_INT32
    }
  }
  attr {
    key: "value"
    value {
      tensor {
        dtype: DT_INT32
        tensor_shape {
        }
        int_val: 1
      }
    }
  }
}
node {
  name: "layer1/biases/summaries/range"
  op: "Range"
  input: "layer1/biases/summaries/range/start"
  input: "layer1/biases/summaries/Rank"
  input: "layer1/biases/summaries/range/delta"
  attr {
    key: "_output_shapes"
    value {
      list {
        shape {
          dim {
            size: 1
          }
        }
      }
    }
  }
}
node {
  name: "layer1/biases/summaries/Mean"
  op: "Mean"
  input: "layer1/biases/Variable/read"
  input: "layer1/biases/summaries/range"
  attr {
    key: "T"
    value {
      type: DT_FLOAT
    }
  }
  attr {
    key: "_output_shapes"
    value {
      list {
        shape {
        }
      }
    }
  }
  attr {
    key: "keep_dims"
    value {
      b: false
    }
  }
}
node {
  name: "layer1/biases/summaries/ScalarSummary/tags"
  op: "Const"
  attr {
    key: "_output_shapes"
    value {
      list {
        shape {
        }
      }
    }
  }
  attr {
    key: "dtype"
    value {
      type: DT_STRING
    }
  }
  attr {
    key: "value"
    value {
      tensor {
        dtype: DT_STRING
        tensor_shape {
        }
        string_val: "mean/layer1/biases"
      }
    }
  }
}
node {
  name: "layer1/biases/summaries/ScalarSummary"
  op: "ScalarSummary"
  input: "layer1/biases/summaries/ScalarSummary/tags"
  input: "layer1/biases/summaries/Mean"
  attr {
    key: "T"
    value {
      type: DT_FLOAT
    }
  }
  attr {
    key: "_output_shapes"
    value {
      list {
        shape {
        }
      }
    }
  }
}
node {
  name: "layer1/biases/summaries/stddev/sub"
  op: "Sub"
  input: "layer1/biases/Variable/read"
  input: "layer1/biases/summaries/Mean"
  attr {
    key: "T"
    value {
      type: DT_FLOAT
    }
  }
  attr {
    key: "_output_shapes"
    value {
      list {
        shape {
          dim {
            size: 50
          }
        }
      }
    }
  }
}
node {
  name: "layer1/biases/summaries/stddev/Square"
  op: "Square"
  input: "layer1/biases/summaries/stddev/sub"
  attr {
    key: "T"
    value {
      type: DT_FLOAT
    }
  }
  attr {
    key: "_output_shapes"
    value {
      list {
        shape {
          dim {
            size: 50
          }
        }
      }
    }
  }
}
node {
  name: "layer1/biases/summaries/stddev/Rank"
  op: "Rank"
  input: "layer1/biases/summaries/stddev/Square"
  attr {
    key: "T"
    value {
      type: DT_FLOAT
    }
  }
  attr {
    key: "_output_shapes"
    value {
      list {
        shape {
        }
      }
    }
  }
}
node {
  name: "layer1/biases/summaries/stddev/range/start"
  op: "Const"
  attr {
    key: "_output_shapes"
    value {
      list {
        shape {
        }
      }
    }
  }
  attr {
    key: "dtype"
    value {
      type: DT_INT32
    }
  }
  attr {
    key: "value"
    value {
      tensor {
        dtype: DT_INT32
        tensor_shape {
        }
        int_val: 0
      }
    }
  }
}
node {
  name: "layer1/biases/summaries/stddev/range/delta"
  op: "Const"
  attr {
    key: "_output_shapes"
    value {
      list {
        shape {
        }
      }
    }
  }
  attr {
    key: "dtype"
    value {
      type: DT_INT32
    }
  }
  attr {
    key: "value"
    value {
      tensor {
        dtype: DT_INT32
        tensor_shape {
        }
        int_val: 1
      }
    }
  }
}
node {
  name: "layer1/biases/summaries/stddev/range"
  op: "Range"
  input: "layer1/biases/summaries/stddev/range/start"
  input: "layer1/biases/summaries/stddev/Rank"
  input: "layer1/biases/summaries/stddev/range/delta"
  attr {
    key: "_output_shapes"
    value {
      list {
        shape {
          dim {
            size: 1
          }
        }
      }
    }
  }
}
node {
  name: "layer1/biases/summaries/stddev/Sum"
  op: "Sum"
  input: "layer1/biases/summaries/stddev/Square"
  input: "layer1/biases/summaries/stddev/range"
  attr {
    key: "T"
    value {
      type: DT_FLOAT
    }
  }
  attr {
    key: "_output_shapes"
    value {
      list {
        shape {
        }
      }
    }
  }
  attr {
    key: "keep_dims"
    value {
      b: false
    }
  }
}
node {
  name: "layer1/biases/summaries/stddev/Sqrt"
  op: "Sqrt"
  input: "layer1/biases/summaries/stddev/Sum"
  attr {
    key: "T"
    value {
      type: DT_FLOAT
    }
  }
  attr {
    key: "_output_shapes"
    value {
      list {
        shape {
        }
      }
    }
  }
}
node {
  name: "layer1/biases/summaries/ScalarSummary_1/tags"
  op: "Const"
  attr {
    key: "_output_shapes"
    value {
      list {
        shape {
        }
      }
    }
  }
  attr {
    key: "dtype"
    value {
      type: DT_STRING
    }
  }
  attr {
    key: "value"
    value {
      tensor {
        dtype: DT_STRING
        tensor_shape {
        }
        string_val: "sttdev/layer1/biases"
      }
    }
  }
}
node {
  name: "layer1/biases/summaries/ScalarSummary_1"
  op: "ScalarSummary"
  input: "layer1/biases/summaries/ScalarSummary_1/tags"
  input: "layer1/biases/summaries/stddev/Sqrt"
  attr {
    key: "T"
    value {
      type: DT_FLOAT
    }
  }
  attr {
    key: "_output_shapes"
    value {
      list {
        shape {
        }
      }
    }
  }
}
node {
  name: "layer1/biases/summaries/Rank_1"
  op: "Rank"
  input: "layer1/biases/Variable/read"
  attr {
    key: "T"
    value {
      type: DT_FLOAT
    }
  }
  attr {
    key: "_output_shapes"
    value {
      list {
        shape {
        }
      }
    }
  }
}
node {
  name: "layer1/biases/summaries/range_1/start"
  op: "Const"
  attr {
    key: "_output_shapes"
    value {
      list {
        shape {
        }
      }
    }
  }
  attr {
    key: "dtype"
    value {
      type: DT_INT32
    }
  }
  attr {
    key: "value"
    value {
      tensor {
        dtype: DT_INT32
        tensor_shape {
        }
        int_val: 0
      }
    }
  }
}
node {
  name: "layer1/biases/summaries/range_1/delta"
  op: "Const"
  attr {
    key: "_output_shapes"
    value {
      list {
        shape {
        }
      }
    }
  }
  attr {
    key: "dtype"
    value {
      type: DT_INT32
    }
  }
  attr {
    key: "value"
    value {
      tensor {
        dtype: DT_INT32
        tensor_shape {
        }
        int_val: 1
      }
    }
  }
}
node {
  name: "layer1/biases/summaries/range_1"
  op: "Range"
  input: "layer1/biases/summaries/range_1/start"
  input: "layer1/biases/summaries/Rank_1"
  input: "layer1/biases/summaries/range_1/delta"
  attr {
    key: "_output_shapes"
    value {
      list {
        shape {
          dim {
            size: 1
          }
        }
      }
    }
  }
}
node {
  name: "layer1/biases/summaries/Max"
  op: "Max"
  input: "layer1/biases/Variable/read"
  input: "layer1/biases/summaries/range_1"
  attr {
    key: "T"
    value {
      type: DT_FLOAT
    }
  }
  attr {
    key: "_output_shapes"
    value {
      list {
        shape {
        }
      }
    }
  }
  attr {
    key: "keep_dims"
    value {
      b: false
    }
  }
}
node {
  name: "layer1/biases/summaries/ScalarSummary_2/tags"
  op: "Const"
  attr {
    key: "_output_shapes"
    value {
      list {
        shape {
        }
      }
    }
  }
  attr {
    key: "dtype"
    value {
      type: DT_STRING
    }
  }
  attr {
    key: "value"
    value {
      tensor {
        dtype: DT_STRING
        tensor_shape {
        }
        string_val: "max/layer1/biases"
      }
    }
  }
}
node {
  name: "layer1/biases/summaries/ScalarSummary_2"
  op: "ScalarSummary"
  input: "layer1/biases/summaries/ScalarSummary_2/tags"
  input: "layer1/biases/summaries/Max"
  attr {
    key: "T"
    value {
      type: DT_FLOAT
    }
  }
  attr {
    key: "_output_shapes"
    value {
      list {
        shape {
        }
      }
    }
  }
}
node {
  name: "layer1/biases/summaries/Rank_2"
  op: "Rank"
  input: "layer1/biases/Variable/read"
  attr {
    key: "T"
    value {
      type: DT_FLOAT
    }
  }
  attr {
    key: "_output_shapes"
    value {
      list {
        shape {
        }
      }
    }
  }
}
node {
  name: "layer1/biases/summaries/range_2/start"
  op: "Const"
  attr {
    key: "_output_shapes"
    value {
      list {
        shape {
        }
      }
    }
  }
  attr {
    key: "dtype"
    value {
      type: DT_INT32
    }
  }
  attr {
    key: "value"
    value {
      tensor {
        dtype: DT_INT32
        tensor_shape {
        }
        int_val: 0
      }
    }
  }
}
node {
  name: "layer1/biases/summaries/range_2/delta"
  op: "Const"
  attr {
    key: "_output_shapes"
    value {
      list {
        shape {
        }
      }
    }
  }
  attr {
    key: "dtype"
    value {
      type: DT_INT32
    }
  }
  attr {
    key: "value"
    value {
      tensor {
        dtype: DT_INT32
        tensor_shape {
        }
        int_val: 1
      }
    }
  }
}
node {
  name: "layer1/biases/summaries/range_2"
  op: "Range"
  input: "layer1/biases/summaries/range_2/start"
  input: "layer1/biases/summaries/Rank_2"
  input: "layer1/biases/summaries/range_2/delta"
  attr {
    key: "_output_shapes"
    value {
      list {
        shape {
          dim {
            size: 1
          }
        }
      }
    }
  }
}
node {
  name: "layer1/biases/summaries/Min"
  op: "Min"
  input: "layer1/biases/Variable/read"
  input: "layer1/biases/summaries/range_2"
  attr {
    key: "T"
    value {
      type: DT_FLOAT
    }
  }
  attr {
    key: "_output_shapes"
    value {
      list {
        shape {
        }
      }
    }
  }
  attr {
    key: "keep_dims"
    value {
      b: false
    }
  }
}
node {
  name: "layer1/biases/summaries/ScalarSummary_3/tags"
  op: "Const"
  attr {
    key: "_output_shapes"
    value {
      list {
        shape {
        }
      }
    }
  }
  attr {
    key: "dtype"
    value {
      type: DT_STRING
    }
  }
  attr {
    key: "value"
    value {
      tensor {
        dtype: DT_STRING
        tensor_shape {
        }
        string_val: "min/layer1/biases"
      }
    }
  }
}
node {
  name: "layer1/biases/summaries/ScalarSummary_3"
  op: "ScalarSummary"
  input: "layer1/biases/summaries/ScalarSummary_3/tags"
  input: "layer1/biases/summaries/Min"
  attr {
    key: "T"
    value {
      type: DT_FLOAT
    }
  }
  attr {
    key: "_output_shapes"
    value {
      list {
        shape {
        }
      }
    }
  }
}
node {
  name: "layer1/biases/summaries/HistogramSummary/tag"
  op: "Const"
  attr {
    key: "_output_shapes"
    value {
      list {
        shape {
        }
      }
    }
  }
  attr {
    key: "dtype"
    value {
      type: DT_STRING
    }
  }
  attr {
    key: "value"
    value {
      tensor {
        dtype: DT_STRING
        tensor_shape {
        }
        string_val: "layer1/biases"
      }
    }
  }
}
node {
  name: "layer1/biases/summaries/HistogramSummary"
  op: "HistogramSummary"
  input: "layer1/biases/summaries/HistogramSummary/tag"
  input: "layer1/biases/Variable/read"
  attr {
    key: "T"
    value {
      type: DT_FLOAT
    }
  }
  attr {
    key: "_output_shapes"
    value {
      list {
        shape {
        }
      }
    }
  }
}
node {
  name: "layer1/Wx_plus_b/MatMul"
  op: "MatMul"
  input: "input/x-input"
  input: "layer1/weights/Variable/read"
  attr {
    key: "T"
    value {
      type: DT_FLOAT
    }
  }
  attr {
    key: "_output_shapes"
    value {
      list {
        shape {
          dim {
            size: -1
          }
          dim {
            size: 50
          }
        }
      }
    }
  }
  attr {
    key: "transpose_a"
    value {
      b: false
    }
  }
  attr {
    key: "transpose_b"
    value {
      b: false
    }
  }
}
node {
  name: "layer1/Wx_plus_b/add"
  op: "Add"
  input: "layer1/Wx_plus_b/MatMul"
  input: "layer1/biases/Variable/read"
  attr {
    key: "T"
    value {
      type: DT_FLOAT
    }
  }
  attr {
    key: "_output_shapes"
    value {
      list {
        shape {
          dim {
            size: -1
          }
          dim {
            size: 50
          }
        }
      }
    }
  }
}
node {
  name: "layer1/Wx_plus_b/HistogramSummary/tag"
  op: "Const"
  attr {
    key: "_output_shapes"
    value {
      list {
        shape {
        }
      }
    }
  }
  attr {
    key: "dtype"
    value {
      type: DT_STRING
    }
  }
  attr {
    key: "value"
    value {
      tensor {
        dtype: DT_STRING
        tensor_shape {
        }
        string_val: "layer1/activations"
      }
    }
  }
}
node {
  name: "layer1/Wx_plus_b/HistogramSummary"
  op: "HistogramSummary"
  input: "layer1/Wx_plus_b/HistogramSummary/tag"
  input: "layer1/Wx_plus_b/add"
  attr {
    key: "T"
    value {
      type: DT_FLOAT
    }
  }
  attr {
    key: "_output_shapes"
    value {
      list {
        shape {
        }
      }
    }
  }
}
node {
  name: "layer1/relu"
  op: "Relu"
  input: "layer1/Wx_plus_b/add"
  attr {
    key: "T"
    value {
      type: DT_FLOAT
    }
  }
  attr {
    key: "_output_shapes"
    value {
      list {
        shape {
          dim {
            size: -1
          }
          dim {
            size: 50
          }
        }
      }
    }
  }
}
node {
  name: "layer1/HistogramSummary/tag"
  op: "Const"
  attr {
    key: "_output_shapes"
    value {
      list {
        shape {
        }
      }
    }
  }
  attr {
    key: "dtype"
    value {
      type: DT_STRING
    }
  }
  attr {
    key: "value"
    value {
      tensor {
        dtype: DT_STRING
        tensor_shape {
        }
        string_val: "layer1/activations_relu"
      }
    }
  }
}
node {
  name: "layer1/HistogramSummary"
  op: "HistogramSummary"
  input: "layer1/HistogramSummary/tag"
  input: "layer1/relu"
  attr {
    key: "T"
    value {
      type: DT_FLOAT
    }
  }
  attr {
    key: "_output_shapes"
    value {
      list {
        shape {
        }
      }
    }
  }
}
node {
  name: "layer1/dropout/Shape"
  op: "Shape"
  input: "layer1/relu"
  attr {
    key: "T"
    value {
      type: DT_FLOAT
    }
  }
  attr {
    key: "_output_shapes"
    value {
      list {
        shape {
          dim {
            size: 2
          }
        }
      }
    }
  }
}
node {
  name: "layer1/dropout/random_uniform/min"
  op: "Const"
  attr {
    key: "_output_shapes"
    value {
      list {
        shape {
        }
      }
    }
  }
  attr {
    key: "dtype"
    value {
      type: DT_FLOAT
    }
  }
  attr {
    key: "value"
    value {
      tensor {
        dtype: DT_FLOAT
        tensor_shape {
        }
        float_val: 0.0
      }
    }
  }
}
node {
  name: "layer1/dropout/random_uniform/max"
  op: "Const"
  attr {
    key: "_output_shapes"
    value {
      list {
        shape {
        }
      }
    }
  }
  attr {
    key: "dtype"
    value {
      type: DT_FLOAT
    }
  }
  attr {
    key: "value"
    value {
      tensor {
        dtype: DT_FLOAT
        tensor_shape {
        }
        float_val: 1.0
      }
    }
  }
}
node {
  name: "layer1/dropout/random_uniform/RandomUniform"
  op: "RandomUniform"
  input: "layer1/dropout/Shape"
  attr {
    key: "T"
    value {
      type: DT_INT32
    }
  }
  attr {
    key: "_output_shapes"
    value {
      list {
        shape {
          dim {
            size: -1
          }
          dim {
            size: -1
          }
        }
      }
    }
  }
  attr {
    key: "dtype"
    value {
      type: DT_FLOAT
    }
  }
  attr {
    key: "seed"
    value {
      i: 0
    }
  }
  attr {
    key: "seed2"
    value {
      i: 0
    }
  }
}
node {
  name: "layer1/dropout/random_uniform/sub"
  op: "Sub"
  input: "layer1/dropout/random_uniform/max"
  input: "layer1/dropout/random_uniform/min"
  attr {
    key: "T"
    value {
      type: DT_FLOAT
    }
  }
  attr {
    key: "_output_shapes"
    value {
      list {
        shape {
        }
      }
    }
  }
}
node {
  name: "layer1/dropout/random_uniform/mul"
  op: "Mul"
  input: "layer1/dropout/random_uniform/RandomUniform"
  input: "layer1/dropout/random_uniform/sub"
  attr {
    key: "T"
    value {
      type: DT_FLOAT
    }
  }
  attr {
    key: "_output_shapes"
    value {
      list {
        shape {
          dim {
            size: -1
          }
          dim {
            size: -1
          }
        }
      }
    }
  }
}
node {
  name: "layer1/dropout/random_uniform"
  op: "Add"
  input: "layer1/dropout/random_uniform/mul"
  input: "layer1/dropout/random_uniform/min"
  attr {
    key: "T"
    value {
      type: DT_FLOAT
    }
  }
  attr {
    key: "_output_shapes"
    value {
      list {
        shape {
          dim {
            size: -1
          }
          dim {
            size: -1
          }
        }
      }
    }
  }
}
node {
  name: "layer1/dropout/add"
  op: "Add"
  input: "input/Placeholder"
  input: "layer1/dropout/random_uniform"
  attr {
    key: "T"
    value {
      type: DT_FLOAT
    }
  }
  attr {
    key: "_output_shapes"
    value {
      list {
        shape {
          unknown_rank: true
        }
      }
    }
  }
}
node {
  name: "layer1/dropout/Floor"
  op: "Floor"
  input: "layer1/dropout/add"
  attr {
    key: "T"
    value {
      type: DT_FLOAT
    }
  }
  attr {
    key: "_output_shapes"
    value {
      list {
        shape {
          unknown_rank: true
        }
      }
    }
  }
}
node {
  name: "layer1/dropout/Inv"
  op: "Inv"
  input: "input/Placeholder"
  attr {
    key: "T"
    value {
      type: DT_FLOAT
    }
  }
  attr {
    key: "_output_shapes"
    value {
      list {
        shape {
          unknown_rank: true
        }
      }
    }
  }
}
node {
  name: "layer1/dropout/mul"
  op: "Mul"
  input: "layer1/relu"
  input: "layer1/dropout/Inv"
  attr {
    key: "T"
    value {
      type: DT_FLOAT
    }
  }
  attr {
    key: "_output_shapes"
    value {
      list {
        shape {
          unknown_rank: true
        }
      }
    }
  }
}
node {
  name: "layer1/dropout/mul_1"
  op: "Mul"
  input: "layer1/dropout/mul"
  input: "layer1/dropout/Floor"
  attr {
    key: "T"
    value {
      type: DT_FLOAT
    }
  }
  attr {
    key: "_output_shapes"
    value {
      list {
        shape {
          dim {
            size: -1
          }
          dim {
            size: 50
          }
        }
      }
    }
  }
}
node {
  name: "layer2/weights/truncated_normal/shape"
  op: "Const"
  attr {
    key: "_output_shapes"
    value {
      list {
        shape {
          dim {
            size: 2
          }
        }
      }
    }
  }
  attr {
    key: "dtype"
    value {
      type: DT_INT32
    }
  }
  attr {
    key: "value"
    value {
      tensor {
        dtype: DT_INT32
        tensor_shape {
          dim {
            size: 2
          }
        }
        tensor_content: "2\000\000\000\n\000\000\000"
      }
    }
  }
}
node {
  name: "layer2/weights/truncated_normal/mean"
  op: "Const"
  attr {
    key: "_output_shapes"
    value {
      list {
        shape {
        }
      }
    }
  }
  attr {
    key: "dtype"
    value {
      type: DT_FLOAT
    }
  }
  attr {
    key: "value"
    value {
      tensor {
        dtype: DT_FLOAT
        tensor_shape {
        }
        float_val: 0.0
      }
    }
  }
}
node {
  name: "layer2/weights/truncated_normal/stddev"
  op: "Const"
  attr {
    key: "_output_shapes"
    value {
      list {
        shape {
        }
      }
    }
  }
  attr {
    key: "dtype"
    value {
      type: DT_FLOAT
    }
  }
  attr {
    key: "value"
    value {
      tensor {
        dtype: DT_FLOAT
        tensor_shape {
        }
        float_val: 0.10000000149
      }
    }
  }
}
node {
  name: "layer2/weights/truncated_normal/TruncatedNormal"
  op: "TruncatedNormal"
  input: "layer2/weights/truncated_normal/shape"
  attr {
    key: "T"
    value {
      type: DT_INT32
    }
  }
  attr {
    key: "_output_shapes"
    value {
      list {
        shape {
          dim {
            size: 50
          }
          dim {
            size: 10
          }
        }
      }
    }
  }
  attr {
    key: "dtype"
    value {
      type: DT_FLOAT
    }
  }
  attr {
    key: "seed"
    value {
      i: 0
    }
  }
  attr {
    key: "seed2"
    value {
      i: 0
    }
  }
}
node {
  name: "layer2/weights/truncated_normal/mul"
  op: "Mul"
  input: "layer2/weights/truncated_normal/TruncatedNormal"
  input: "layer2/weights/truncated_normal/stddev"
  attr {
    key: "T"
    value {
      type: DT_FLOAT
    }
  }
  attr {
    key: "_output_shapes"
    value {
      list {
        shape {
          dim {
            size: 50
          }
          dim {
            size: 10
          }
        }
      }
    }
  }
}
node {
  name: "layer2/weights/truncated_normal"
  op: "Add"
  input: "layer2/weights/truncated_normal/mul"
  input: "layer2/weights/truncated_normal/mean"
  attr {
    key: "T"
    value {
      type: DT_FLOAT
    }
  }
  attr {
    key: "_output_shapes"
    value {
      list {
        shape {
          dim {
            size: 50
          }
          dim {
            size: 10
          }
        }
      }
    }
  }
}
node {
  name: "layer2/weights/Variable"
  op: "Variable"
  attr {
    key: "_output_shapes"
    value {
      list {
        shape {
          dim {
            size: 50
          }
          dim {
            size: 10
          }
        }
      }
    }
  }
  attr {
    key: "container"
    value {
      s: ""
    }
  }
  attr {
    key: "dtype"
    value {
      type: DT_FLOAT
    }
  }
  attr {
    key: "shape"
    value {
      shape {
        dim {
          size: 50
        }
        dim {
          size: 10
        }
      }
    }
  }
  attr {
    key: "shared_name"
    value {
      s: ""
    }
  }
}
node {
  name: "layer2/weights/Variable/Assign"
  op: "Assign"
  input: "layer2/weights/Variable"
  input: "layer2/weights/truncated_normal"
  attr {
    key: "T"
    value {
      type: DT_FLOAT
    }
  }
  attr {
    key: "_class"
    value {
      list {
        s: "loc:@layer2/weights/Variable"
      }
    }
  }
  attr {
    key: "_output_shapes"
    value {
      list {
        shape {
          dim {
            size: 50
          }
          dim {
            size: 10
          }
        }
      }
    }
  }
  attr {
    key: "use_locking"
    value {
      b: true
    }
  }
  attr {
    key: "validate_shape"
    value {
      b: true
    }
  }
}
node {
  name: "layer2/weights/Variable/read"
  op: "Identity"
  input: "layer2/weights/Variable"
  attr {
    key: "T"
    value {
      type: DT_FLOAT
    }
  }
  attr {
    key: "_class"
    value {
      list {
        s: "loc:@layer2/weights/Variable"
      }
    }
  }
  attr {
    key: "_output_shapes"
    value {
      list {
        shape {
          dim {
            size: 50
          }
          dim {
            size: 10
          }
        }
      }
    }
  }
}
node {
  name: "layer2/weights/summaries/Rank"
  op: "Rank"
  input: "layer2/weights/Variable/read"
  attr {
    key: "T"
    value {
      type: DT_FLOAT
    }
  }
  attr {
    key: "_output_shapes"
    value {
      list {
        shape {
        }
      }
    }
  }
}
node {
  name: "layer2/weights/summaries/range/start"
  op: "Const"
  attr {
    key: "_output_shapes"
    value {
      list {
        shape {
        }
      }
    }
  }
  attr {
    key: "dtype"
    value {
      type: DT_INT32
    }
  }
  attr {
    key: "value"
    value {
      tensor {
        dtype: DT_INT32
        tensor_shape {
        }
        int_val: 0
      }
    }
  }
}
node {
  name: "layer2/weights/summaries/range/delta"
  op: "Const"
  attr {
    key: "_output_shapes"
    value {
      list {
        shape {
        }
      }
    }
  }
  attr {
    key: "dtype"
    value {
      type: DT_INT32
    }
  }
  attr {
    key: "value"
    value {
      tensor {
        dtype: DT_INT32
        tensor_shape {
        }
        int_val: 1
      }
    }
  }
}
node {
  name: "layer2/weights/summaries/range"
  op: "Range"
  input: "layer2/weights/summaries/range/start"
  input: "layer2/weights/summaries/Rank"
  input: "layer2/weights/summaries/range/delta"
  attr {
    key: "_output_shapes"
    value {
      list {
        shape {
          dim {
            size: 2
          }
        }
      }
    }
  }
}
node {
  name: "layer2/weights/summaries/Mean"
  op: "Mean"
  input: "layer2/weights/Variable/read"
  input: "layer2/weights/summaries/range"
  attr {
    key: "T"
    value {
      type: DT_FLOAT
    }
  }
  attr {
    key: "_output_shapes"
    value {
      list {
        shape {
        }
      }
    }
  }
  attr {
    key: "keep_dims"
    value {
      b: false
    }
  }
}
node {
  name: "layer2/weights/summaries/ScalarSummary/tags"
  op: "Const"
  attr {
    key: "_output_shapes"
    value {
      list {
        shape {
        }
      }
    }
  }
  attr {
    key: "dtype"
    value {
      type: DT_STRING
    }
  }
  attr {
    key: "value"
    value {
      tensor {
        dtype: DT_STRING
        tensor_shape {
        }
        string_val: "mean/layer2/weights"
      }
    }
  }
}
node {
  name: "layer2/weights/summaries/ScalarSummary"
  op: "ScalarSummary"
  input: "layer2/weights/summaries/ScalarSummary/tags"
  input: "layer2/weights/summaries/Mean"
  attr {
    key: "T"
    value {
      type: DT_FLOAT
    }
  }
  attr {
    key: "_output_shapes"
    value {
      list {
        shape {
        }
      }
    }
  }
}
node {
  name: "layer2/weights/summaries/stddev/sub"
  op: "Sub"
  input: "layer2/weights/Variable/read"
  input: "layer2/weights/summaries/Mean"
  attr {
    key: "T"
    value {
      type: DT_FLOAT
    }
  }
  attr {
    key: "_output_shapes"
    value {
      list {
        shape {
          dim {
            size: 50
          }
          dim {
            size: 10
          }
        }
      }
    }
  }
}
node {
  name: "layer2/weights/summaries/stddev/Square"
  op: "Square"
  input: "layer2/weights/summaries/stddev/sub"
  attr {
    key: "T"
    value {
      type: DT_FLOAT
    }
  }
  attr {
    key: "_output_shapes"
    value {
      list {
        shape {
          dim {
            size: 50
          }
          dim {
            size: 10
          }
        }
      }
    }
  }
}
node {
  name: "layer2/weights/summaries/stddev/Rank"
  op: "Rank"
  input: "layer2/weights/summaries/stddev/Square"
  attr {
    key: "T"
    value {
      type: DT_FLOAT
    }
  }
  attr {
    key: "_output_shapes"
    value {
      list {
        shape {
        }
      }
    }
  }
}
node {
  name: "layer2/weights/summaries/stddev/range/start"
  op: "Const"
  attr {
    key: "_output_shapes"
    value {
      list {
        shape {
        }
      }
    }
  }
  attr {
    key: "dtype"
    value {
      type: DT_INT32
    }
  }
  attr {
    key: "value"
    value {
      tensor {
        dtype: DT_INT32
        tensor_shape {
        }
        int_val: 0
      }
    }
  }
}
node {
  name: "layer2/weights/summaries/stddev/range/delta"
  op: "Const"
  attr {
    key: "_output_shapes"
    value {
      list {
        shape {
        }
      }
    }
  }
  attr {
    key: "dtype"
    value {
      type: DT_INT32
    }
  }
  attr {
    key: "value"
    value {
      tensor {
        dtype: DT_INT32
        tensor_shape {
        }
        int_val: 1
      }
    }
  }
}
node {
  name: "layer2/weights/summaries/stddev/range"
  op: "Range"
  input: "layer2/weights/summaries/stddev/range/start"
  input: "layer2/weights/summaries/stddev/Rank"
  input: "layer2/weights/summaries/stddev/range/delta"
  attr {
    key: "_output_shapes"
    value {
      list {
        shape {
          dim {
            size: 2
          }
        }
      }
    }
  }
}
node {
  name: "layer2/weights/summaries/stddev/Sum"
  op: "Sum"
  input: "layer2/weights/summaries/stddev/Square"
  input: "layer2/weights/summaries/stddev/range"
  attr {
    key: "T"
    value {
      type: DT_FLOAT
    }
  }
  attr {
    key: "_output_shapes"
    value {
      list {
        shape {
        }
      }
    }
  }
  attr {
    key: "keep_dims"
    value {
      b: false
    }
  }
}
node {
  name: "layer2/weights/summaries/stddev/Sqrt"
  op: "Sqrt"
  input: "layer2/weights/summaries/stddev/Sum"
  attr {
    key: "T"
    value {
      type: DT_FLOAT
    }
  }
  attr {
    key: "_output_shapes"
    value {
      list {
        shape {
        }
      }
    }
  }
}
node {
  name: "layer2/weights/summaries/ScalarSummary_1/tags"
  op: "Const"
  attr {
    key: "_output_shapes"
    value {
      list {
        shape {
        }
      }
    }
  }
  attr {
    key: "dtype"
    value {
      type: DT_STRING
    }
  }
  attr {
    key: "value"
    value {
      tensor {
        dtype: DT_STRING
        tensor_shape {
        }
        string_val: "sttdev/layer2/weights"
      }
    }
  }
}
node {
  name: "layer2/weights/summaries/ScalarSummary_1"
  op: "ScalarSummary"
  input: "layer2/weights/summaries/ScalarSummary_1/tags"
  input: "layer2/weights/summaries/stddev/Sqrt"
  attr {
    key: "T"
    value {
      type: DT_FLOAT
    }
  }
  attr {
    key: "_output_shapes"
    value {
      list {
        shape {
        }
      }
    }
  }
}
node {
  name: "layer2/weights/summaries/Rank_1"
  op: "Rank"
  input: "layer2/weights/Variable/read"
  attr {
    key: "T"
    value {
      type: DT_FLOAT
    }
  }
  attr {
    key: "_output_shapes"
    value {
      list {
        shape {
        }
      }
    }
  }
}
node {
  name: "layer2/weights/summaries/range_1/start"
  op: "Const"
  attr {
    key: "_output_shapes"
    value {
      list {
        shape {
        }
      }
    }
  }
  attr {
    key: "dtype"
    value {
      type: DT_INT32
    }
  }
  attr {
    key: "value"
    value {
      tensor {
        dtype: DT_INT32
        tensor_shape {
        }
        int_val: 0
      }
    }
  }
}
node {
  name: "layer2/weights/summaries/range_1/delta"
  op: "Const"
  attr {
    key: "_output_shapes"
    value {
      list {
        shape {
        }
      }
    }
  }
  attr {
    key: "dtype"
    value {
      type: DT_INT32
    }
  }
  attr {
    key: "value"
    value {
      tensor {
        dtype: DT_INT32
        tensor_shape {
        }
        int_val: 1
      }
    }
  }
}
node {
  name: "layer2/weights/summaries/range_1"
  op: "Range"
  input: "layer2/weights/summaries/range_1/start"
  input: "layer2/weights/summaries/Rank_1"
  input: "layer2/weights/summaries/range_1/delta"
  attr {
    key: "_output_shapes"
    value {
      list {
        shape {
          dim {
            size: 2
          }
        }
      }
    }
  }
}
node {
  name: "layer2/weights/summaries/Max"
  op: "Max"
  input: "layer2/weights/Variable/read"
  input: "layer2/weights/summaries/range_1"
  attr {
    key: "T"
    value {
      type: DT_FLOAT
    }
  }
  attr {
    key: "_output_shapes"
    value {
      list {
        shape {
        }
      }
    }
  }
  attr {
    key: "keep_dims"
    value {
      b: false
    }
  }
}
node {
  name: "layer2/weights/summaries/ScalarSummary_2/tags"
  op: "Const"
  attr {
    key: "_output_shapes"
    value {
      list {
        shape {
        }
      }
    }
  }
  attr {
    key: "dtype"
    value {
      type: DT_STRING
    }
  }
  attr {
    key: "value"
    value {
      tensor {
        dtype: DT_STRING
        tensor_shape {
        }
        string_val: "max/layer2/weights"
      }
    }
  }
}
node {
  name: "layer2/weights/summaries/ScalarSummary_2"
  op: "ScalarSummary"
  input: "layer2/weights/summaries/ScalarSummary_2/tags"
  input: "layer2/weights/summaries/Max"
  attr {
    key: "T"
    value {
      type: DT_FLOAT
    }
  }
  attr {
    key: "_output_shapes"
    value {
      list {
        shape {
        }
      }
    }
  }
}
node {
  name: "layer2/weights/summaries/Rank_2"
  op: "Rank"
  input: "layer2/weights/Variable/read"
  attr {
    key: "T"
    value {
      type: DT_FLOAT
    }
  }
  attr {
    key: "_output_shapes"
    value {
      list {
        shape {
        }
      }
    }
  }
}
node {
  name: "layer2/weights/summaries/range_2/start"
  op: "Const"
  attr {
    key: "_output_shapes"
    value {
      list {
        shape {
        }
      }
    }
  }
  attr {
    key: "dtype"
    value {
      type: DT_INT32
    }
  }
  attr {
    key: "value"
    value {
      tensor {
        dtype: DT_INT32
        tensor_shape {
        }
        int_val: 0
      }
    }
  }
}
node {
  name: "layer2/weights/summaries/range_2/delta"
  op: "Const"
  attr {
    key: "_output_shapes"
    value {
      list {
        shape {
        }
      }
    }
  }
  attr {
    key: "dtype"
    value {
      type: DT_INT32
    }
  }
  attr {
    key: "value"
    value {
      tensor {
        dtype: DT_INT32
        tensor_shape {
        }
        int_val: 1
      }
    }
  }
}
node {
  name: "layer2/weights/summaries/range_2"
  op: "Range"
  input: "layer2/weights/summaries/range_2/start"
  input: "layer2/weights/summaries/Rank_2"
  input: "layer2/weights/summaries/range_2/delta"
  attr {
    key: "_output_shapes"
    value {
      list {
        shape {
          dim {
            size: 2
          }
        }
      }
    }
  }
}
node {
  name: "layer2/weights/summaries/Min"
  op: "Min"
  input: "layer2/weights/Variable/read"
  input: "layer2/weights/summaries/range_2"
  attr {
    key: "T"
    value {
      type: DT_FLOAT
    }
  }
  attr {
    key: "_output_shapes"
    value {
      list {
        shape {
        }
      }
    }
  }
  attr {
    key: "keep_dims"
    value {
      b: false
    }
  }
}
node {
  name: "layer2/weights/summaries/ScalarSummary_3/tags"
  op: "Const"
  attr {
    key: "_output_shapes"
    value {
      list {
        shape {
        }
      }
    }
  }
  attr {
    key: "dtype"
    value {
      type: DT_STRING
    }
  }
  attr {
    key: "value"
    value {
      tensor {
        dtype: DT_STRING
        tensor_shape {
        }
        string_val: "min/layer2/weights"
      }
    }
  }
}
node {
  name: "layer2/weights/summaries/ScalarSummary_3"
  op: "ScalarSummary"
  input: "layer2/weights/summaries/ScalarSummary_3/tags"
  input: "layer2/weights/summaries/Min"
  attr {
    key: "T"
    value {
      type: DT_FLOAT
    }
  }
  attr {
    key: "_output_shapes"
    value {
      list {
        shape {
        }
      }
    }
  }
}
node {
  name: "layer2/weights/summaries/HistogramSummary/tag"
  op: "Const"
  attr {
    key: "_output_shapes"
    value {
      list {
        shape {
        }
      }
    }
  }
  attr {
    key: "dtype"
    value {
      type: DT_STRING
    }
  }
  attr {
    key: "value"
    value {
      tensor {
        dtype: DT_STRING
        tensor_shape {
        }
        string_val: "layer2/weights"
      }
    }
  }
}
node {
  name: "layer2/weights/summaries/HistogramSummary"
  op: "HistogramSummary"
  input: "layer2/weights/summaries/HistogramSummary/tag"
  input: "layer2/weights/Variable/read"
  attr {
    key: "T"
    value {
      type: DT_FLOAT
    }
  }
  attr {
    key: "_output_shapes"
    value {
      list {
        shape {
        }
      }
    }
  }
}
node {
  name: "layer2/biases/Const"
  op: "Const"
  attr {
    key: "_output_shapes"
    value {
      list {
        shape {
          dim {
            size: 10
          }
        }
      }
    }
  }
  attr {
    key: "dtype"
    value {
      type: DT_FLOAT
    }
  }
  attr {
    key: "value"
    value {
      tensor {
        dtype: DT_FLOAT
        tensor_shape {
          dim {
            size: 10
          }
        }
        float_val: 0.10000000149
      }
    }
  }
}
node {
  name: "layer2/biases/Variable"
  op: "Variable"
  attr {
    key: "_output_shapes"
    value {
      list {
        shape {
          dim {
            size: 10
          }
        }
      }
    }
  }
  attr {
    key: "container"
    value {
      s: ""
    }
  }
  attr {
    key: "dtype"
    value {
      type: DT_FLOAT
    }
  }
  attr {
    key: "shape"
    value {
      shape {
        dim {
          size: 10
        }
      }
    }
  }
  attr {
    key: "shared_name"
    value {
      s: ""
    }
  }
}
node {
  name: "layer2/biases/Variable/Assign"
  op: "Assign"
  input: "layer2/biases/Variable"
  input: "layer2/biases/Const"
  attr {
    key: "T"
    value {
      type: DT_FLOAT
    }
  }
  attr {
    key: "_class"
    value {
      list {
        s: "loc:@layer2/biases/Variable"
      }
    }
  }
  attr {
    key: "_output_shapes"
    value {
      list {
        shape {
          dim {
            size: 10
          }
        }
      }
    }
  }
  attr {
    key: "use_locking"
    value {
      b: true
    }
  }
  attr {
    key: "validate_shape"
    value {
      b: true
    }
  }
}
node {
  name: "layer2/biases/Variable/read"
  op: "Identity"
  input: "layer2/biases/Variable"
  attr {
    key: "T"
    value {
      type: DT_FLOAT
    }
  }
  attr {
    key: "_class"
    value {
      list {
        s: "loc:@layer2/biases/Variable"
      }
    }
  }
  attr {
    key: "_output_shapes"
    value {
      list {
        shape {
          dim {
            size: 10
          }
        }
      }
    }
  }
}
node {
  name: "layer2/biases/summaries/Rank"
  op: "Rank"
  input: "layer2/biases/Variable/read"
  attr {
    key: "T"
    value {
      type: DT_FLOAT
    }
  }
  attr {
    key: "_output_shapes"
    value {
      list {
        shape {
        }
      }
    }
  }
}
node {
  name: "layer2/biases/summaries/range/start"
  op: "Const"
  attr {
    key: "_output_shapes"
    value {
      list {
        shape {
        }
      }
    }
  }
  attr {
    key: "dtype"
    value {
      type: DT_INT32
    }
  }
  attr {
    key: "value"
    value {
      tensor {
        dtype: DT_INT32
        tensor_shape {
        }
        int_val: 0
      }
    }
  }
}
node {
  name: "layer2/biases/summaries/range/delta"
  op: "Const"
  attr {
    key: "_output_shapes"
    value {
      list {
        shape {
        }
      }
    }
  }
  attr {
    key: "dtype"
    value {
      type: DT_INT32
    }
  }
  attr {
    key: "value"
    value {
      tensor {
        dtype: DT_INT32
        tensor_shape {
        }
        int_val: 1
      }
    }
  }
}
node {
  name: "layer2/biases/summaries/range"
  op: "Range"
  input: "layer2/biases/summaries/range/start"
  input: "layer2/biases/summaries/Rank"
  input: "layer2/biases/summaries/range/delta"
  attr {
    key: "_output_shapes"
    value {
      list {
        shape {
          dim {
            size: 1
          }
        }
      }
    }
  }
}
node {
  name: "layer2/biases/summaries/Mean"
  op: "Mean"
  input: "layer2/biases/Variable/read"
  input: "layer2/biases/summaries/range"
  attr {
    key: "T"
    value {
      type: DT_FLOAT
    }
  }
  attr {
    key: "_output_shapes"
    value {
      list {
        shape {
        }
      }
    }
  }
  attr {
    key: "keep_dims"
    value {
      b: false
    }
  }
}
node {
  name: "layer2/biases/summaries/ScalarSummary/tags"
  op: "Const"
  attr {
    key: "_output_shapes"
    value {
      list {
        shape {
        }
      }
    }
  }
  attr {
    key: "dtype"
    value {
      type: DT_STRING
    }
  }
  attr {
    key: "value"
    value {
      tensor {
        dtype: DT_STRING
        tensor_shape {
        }
        string_val: "mean/layer2/biases"
      }
    }
  }
}
node {
  name: "layer2/biases/summaries/ScalarSummary"
  op: "ScalarSummary"
  input: "layer2/biases/summaries/ScalarSummary/tags"
  input: "layer2/biases/summaries/Mean"
  attr {
    key: "T"
    value {
      type: DT_FLOAT
    }
  }
  attr {
    key: "_output_shapes"
    value {
      list {
        shape {
        }
      }
    }
  }
}
node {
  name: "layer2/biases/summaries/stddev/sub"
  op: "Sub"
  input: "layer2/biases/Variable/read"
  input: "layer2/biases/summaries/Mean"
  attr {
    key: "T"
    value {
      type: DT_FLOAT
    }
  }
  attr {
    key: "_output_shapes"
    value {
      list {
        shape {
          dim {
            size: 10
          }
        }
      }
    }
  }
}
node {
  name: "layer2/biases/summaries/stddev/Square"
  op: "Square"
  input: "layer2/biases/summaries/stddev/sub"
  attr {
    key: "T"
    value {
      type: DT_FLOAT
    }
  }
  attr {
    key: "_output_shapes"
    value {
      list {
        shape {
          dim {
            size: 10
          }
        }
      }
    }
  }
}
node {
  name: "layer2/biases/summaries/stddev/Rank"
  op: "Rank"
  input: "layer2/biases/summaries/stddev/Square"
  attr {
    key: "T"
    value {
      type: DT_FLOAT
    }
  }
  attr {
    key: "_output_shapes"
    value {
      list {
        shape {
        }
      }
    }
  }
}
node {
  name: "layer2/biases/summaries/stddev/range/start"
  op: "Const"
  attr {
    key: "_output_shapes"
    value {
      list {
        shape {
        }
      }
    }
  }
  attr {
    key: "dtype"
    value {
      type: DT_INT32
    }
  }
  attr {
    key: "value"
    value {
      tensor {
        dtype: DT_INT32
        tensor_shape {
        }
        int_val: 0
      }
    }
  }
}
node {
  name: "layer2/biases/summaries/stddev/range/delta"
  op: "Const"
  attr {
    key: "_output_shapes"
    value {
      list {
        shape {
        }
      }
    }
  }
  attr {
    key: "dtype"
    value {
      type: DT_INT32
    }
  }
  attr {
    key: "value"
    value {
      tensor {
        dtype: DT_INT32
        tensor_shape {
        }
        int_val: 1
      }
    }
  }
}
node {
  name: "layer2/biases/summaries/stddev/range"
  op: "Range"
  input: "layer2/biases/summaries/stddev/range/start"
  input: "layer2/biases/summaries/stddev/Rank"
  input: "layer2/biases/summaries/stddev/range/delta"
  attr {
    key: "_output_shapes"
    value {
      list {
        shape {
          dim {
            size: 1
          }
        }
      }
    }
  }
}
node {
  name: "layer2/biases/summaries/stddev/Sum"
  op: "Sum"
  input: "layer2/biases/summaries/stddev/Square"
  input: "layer2/biases/summaries/stddev/range"
  attr {
    key: "T"
    value {
      type: DT_FLOAT
    }
  }
  attr {
    key: "_output_shapes"
    value {
      list {
        shape {
        }
      }
    }
  }
  attr {
    key: "keep_dims"
    value {
      b: false
    }
  }
}
node {
  name: "layer2/biases/summaries/stddev/Sqrt"
  op: "Sqrt"
  input: "layer2/biases/summaries/stddev/Sum"
  attr {
    key: "T"
    value {
      type: DT_FLOAT
    }
  }
  attr {
    key: "_output_shapes"
    value {
      list {
        shape {
        }
      }
    }
  }
}
node {
  name: "layer2/biases/summaries/ScalarSummary_1/tags"
  op: "Const"
  attr {
    key: "_output_shapes"
    value {
      list {
        shape {
        }
      }
    }
  }
  attr {
    key: "dtype"
    value {
      type: DT_STRING
    }
  }
  attr {
    key: "value"
    value {
      tensor {
        dtype: DT_STRING
        tensor_shape {
        }
        string_val: "sttdev/layer2/biases"
      }
    }
  }
}
node {
  name: "layer2/biases/summaries/ScalarSummary_1"
  op: "ScalarSummary"
  input: "layer2/biases/summaries/ScalarSummary_1/tags"
  input: "layer2/biases/summaries/stddev/Sqrt"
  attr {
    key: "T"
    value {
      type: DT_FLOAT
    }
  }
  attr {
    key: "_output_shapes"
    value {
      list {
        shape {
        }
      }
    }
  }
}
node {
  name: "layer2/biases/summaries/Rank_1"
  op: "Rank"
  input: "layer2/biases/Variable/read"
  attr {
    key: "T"
    value {
      type: DT_FLOAT
    }
  }
  attr {
    key: "_output_shapes"
    value {
      list {
        shape {
        }
      }
    }
  }
}
node {
  name: "layer2/biases/summaries/range_1/start"
  op: "Const"
  attr {
    key: "_output_shapes"
    value {
      list {
        shape {
        }
      }
    }
  }
  attr {
    key: "dtype"
    value {
      type: DT_INT32
    }
  }
  attr {
    key: "value"
    value {
      tensor {
        dtype: DT_INT32
        tensor_shape {
        }
        int_val: 0
      }
    }
  }
}
node {
  name: "layer2/biases/summaries/range_1/delta"
  op: "Const"
  attr {
    key: "_output_shapes"
    value {
      list {
        shape {
        }
      }
    }
  }
  attr {
    key: "dtype"
    value {
      type: DT_INT32
    }
  }
  attr {
    key: "value"
    value {
      tensor {
        dtype: DT_INT32
        tensor_shape {
        }
        int_val: 1
      }
    }
  }
}
node {
  name: "layer2/biases/summaries/range_1"
  op: "Range"
  input: "layer2/biases/summaries/range_1/start"
  input: "layer2/biases/summaries/Rank_1"
  input: "layer2/biases/summaries/range_1/delta"
  attr {
    key: "_output_shapes"
    value {
      list {
        shape {
          dim {
            size: 1
          }
        }
      }
    }
  }
}
node {
  name: "layer2/biases/summaries/Max"
  op: "Max"
  input: "layer2/biases/Variable/read"
  input: "layer2/biases/summaries/range_1"
  attr {
    key: "T"
    value {
      type: DT_FLOAT
    }
  }
  attr {
    key: "_output_shapes"
    value {
      list {
        shape {
        }
      }
    }
  }
  attr {
    key: "keep_dims"
    value {
      b: false
    }
  }
}
node {
  name: "layer2/biases/summaries/ScalarSummary_2/tags"
  op: "Const"
  attr {
    key: "_output_shapes"
    value {
      list {
        shape {
        }
      }
    }
  }
  attr {
    key: "dtype"
    value {
      type: DT_STRING
    }
  }
  attr {
    key: "value"
    value {
      tensor {
        dtype: DT_STRING
        tensor_shape {
        }
        string_val: "max/layer2/biases"
      }
    }
  }
}
node {
  name: "layer2/biases/summaries/ScalarSummary_2"
  op: "ScalarSummary"
  input: "layer2/biases/summaries/ScalarSummary_2/tags"
  input: "layer2/biases/summaries/Max"
  attr {
    key: "T"
    value {
      type: DT_FLOAT
    }
  }
  attr {
    key: "_output_shapes"
    value {
      list {
        shape {
        }
      }
    }
  }
}
node {
  name: "layer2/biases/summaries/Rank_2"
  op: "Rank"
  input: "layer2/biases/Variable/read"
  attr {
    key: "T"
    value {
      type: DT_FLOAT
    }
  }
  attr {
    key: "_output_shapes"
    value {
      list {
        shape {
        }
      }
    }
  }
}
node {
  name: "layer2/biases/summaries/range_2/start"
  op: "Const"
  attr {
    key: "_output_shapes"
    value {
      list {
        shape {
        }
      }
    }
  }
  attr {
    key: "dtype"
    value {
      type: DT_INT32
    }
  }
  attr {
    key: "value"
    value {
      tensor {
        dtype: DT_INT32
        tensor_shape {
        }
        int_val: 0
      }
    }
  }
}
node {
  name: "layer2/biases/summaries/range_2/delta"
  op: "Const"
  attr {
    key: "_output_shapes"
    value {
      list {
        shape {
        }
      }
    }
  }
  attr {
    key: "dtype"
    value {
      type: DT_INT32
    }
  }
  attr {
    key: "value"
    value {
      tensor {
        dtype: DT_INT32
        tensor_shape {
        }
        int_val: 1
      }
    }
  }
}
node {
  name: "layer2/biases/summaries/range_2"
  op: "Range"
  input: "layer2/biases/summaries/range_2/start"
  input: "layer2/biases/summaries/Rank_2"
  input: "layer2/biases/summaries/range_2/delta"
  attr {
    key: "_output_shapes"
    value {
      list {
        shape {
          dim {
            size: 1
          }
        }
      }
    }
  }
}
node {
  name: "layer2/biases/summaries/Min"
  op: "Min"
  input: "layer2/biases/Variable/read"
  input: "layer2/biases/summaries/range_2"
  attr {
    key: "T"
    value {
      type: DT_FLOAT
    }
  }
  attr {
    key: "_output_shapes"
    value {
      list {
        shape {
        }
      }
    }
  }
  attr {
    key: "keep_dims"
    value {
      b: false
    }
  }
}
node {
  name: "layer2/biases/summaries/ScalarSummary_3/tags"
  op: "Const"
  attr {
    key: "_output_shapes"
    value {
      list {
        shape {
        }
      }
    }
  }
  attr {
    key: "dtype"
    value {
      type: DT_STRING
    }
  }
  attr {
    key: "value"
    value {
      tensor {
        dtype: DT_STRING
        tensor_shape {
        }
        string_val: "min/layer2/biases"
      }
    }
  }
}
node {
  name: "layer2/biases/summaries/ScalarSummary_3"
  op: "ScalarSummary"
  input: "layer2/biases/summaries/ScalarSummary_3/tags"
  input: "layer2/biases/summaries/Min"
  attr {
    key: "T"
    value {
      type: DT_FLOAT
    }
  }
  attr {
    key: "_output_shapes"
    value {
      list {
        shape {
        }
      }
    }
  }
}
node {
  name: "layer2/biases/summaries/HistogramSummary/tag"
  op: "Const"
  attr {
    key: "_output_shapes"
    value {
      list {
        shape {
        }
      }
    }
  }
  attr {
    key: "dtype"
    value {
      type: DT_STRING
    }
  }
  attr {
    key: "value"
    value {
      tensor {
        dtype: DT_STRING
        tensor_shape {
        }
        string_val: "layer2/biases"
      }
    }
  }
}
node {
  name: "layer2/biases/summaries/HistogramSummary"
  op: "HistogramSummary"
  input: "layer2/biases/summaries/HistogramSummary/tag"
  input: "layer2/biases/Variable/read"
  attr {
    key: "T"
    value {
      type: DT_FLOAT
    }
  }
  attr {
    key: "_output_shapes"
    value {
      list {
        shape {
        }
      }
    }
  }
}
node {
  name: "layer2/Wx_plus_b/MatMul"
  op: "MatMul"
  input: "layer1/dropout/mul_1"
  input: "layer2/weights/Variable/read"
  attr {
    key: "T"
    value {
      type: DT_FLOAT
    }
  }
  attr {
    key: "_output_shapes"
    value {
      list {
        shape {
          dim {
            size: -1
          }
          dim {
            size: 10
          }
        }
      }
    }
  }
  attr {
    key: "transpose_a"
    value {
      b: false
    }
  }
  attr {
    key: "transpose_b"
    value {
      b: false
    }
  }
}
node {
  name: "layer2/Wx_plus_b/add"
  op: "Add"
  input: "layer2/Wx_plus_b/MatMul"
  input: "layer2/biases/Variable/read"
  attr {
    key: "T"
    value {
      type: DT_FLOAT
    }
  }
  attr {
    key: "_output_shapes"
    value {
      list {
        shape {
          dim {
            size: -1
          }
          dim {
            size: 10
          }
        }
      }
    }
  }
}
node {
  name: "layer2/Wx_plus_b/HistogramSummary/tag"
  op: "Const"
  attr {
    key: "_output_shapes"
    value {
      list {
        shape {
        }
      }
    }
  }
  attr {
    key: "dtype"
    value {
      type: DT_STRING
    }
  }
  attr {
    key: "value"
    value {
      tensor {
        dtype: DT_STRING
        tensor_shape {
        }
        string_val: "layer2/activations"
      }
    }
  }
}
node {
  name: "layer2/Wx_plus_b/HistogramSummary"
  op: "HistogramSummary"
  input: "layer2/Wx_plus_b/HistogramSummary/tag"
  input: "layer2/Wx_plus_b/add"
  attr {
    key: "T"
    value {
      type: DT_FLOAT
    }
  }
  attr {
    key: "_output_shapes"
    value {
      list {
        shape {
        }
      }
    }
  }
}
node {
  name: "layer2/relu"
  op: "Relu"
  input: "layer2/Wx_plus_b/add"
  attr {
    key: "T"
    value {
      type: DT_FLOAT
    }
  }
  attr {
    key: "_output_shapes"
    value {
      list {
        shape {
          dim {
            size: -1
          }
          dim {
            size: 10
          }
        }
      }
    }
  }
}
node {
  name: "layer2/HistogramSummary/tag"
  op: "Const"
  attr {
    key: "_output_shapes"
    value {
      list {
        shape {
        }
      }
    }
  }
  attr {
    key: "dtype"
    value {
      type: DT_STRING
    }
  }
  attr {
    key: "value"
    value {
      tensor {
        dtype: DT_STRING
        tensor_shape {
        }
        string_val: "layer2/activations_relu"
      }
    }
  }
}
node {
  name: "layer2/HistogramSummary"
  op: "HistogramSummary"
  input: "layer2/HistogramSummary/tag"
  input: "layer2/relu"
  attr {
    key: "T"
    value {
      type: DT_FLOAT
    }
  }
  attr {
    key: "_output_shapes"
    value {
      list {
        shape {
        }
      }
    }
  }
}
node {
  name: "layer2/dropout/Shape"
  op: "Shape"
  input: "layer2/relu"
  attr {
    key: "T"
    value {
      type: DT_FLOAT
    }
  }
  attr {
    key: "_output_shapes"
    value {
      list {
        shape {
          dim {
            size: 2
          }
        }
      }
    }
  }
}
node {
  name: "layer2/dropout/random_uniform/min"
  op: "Const"
  attr {
    key: "_output_shapes"
    value {
      list {
        shape {
        }
      }
    }
  }
  attr {
    key: "dtype"
    value {
      type: DT_FLOAT
    }
  }
  attr {
    key: "value"
    value {
      tensor {
        dtype: DT_FLOAT
        tensor_shape {
        }
        float_val: 0.0
      }
    }
  }
}
node {
  name: "layer2/dropout/random_uniform/max"
  op: "Const"
  attr {
    key: "_output_shapes"
    value {
      list {
        shape {
        }
      }
    }
  }
  attr {
    key: "dtype"
    value {
      type: DT_FLOAT
    }
  }
  attr {
    key: "value"
    value {
      tensor {
        dtype: DT_FLOAT
        tensor_shape {
        }
        float_val: 1.0
      }
    }
  }
}
node {
  name: "layer2/dropout/random_uniform/RandomUniform"
  op: "RandomUniform"
  input: "layer2/dropout/Shape"
  attr {
    key: "T"
    value {
      type: DT_INT32
    }
  }
  attr {
    key: "_output_shapes"
    value {
      list {
        shape {
          dim {
            size: -1
          }
          dim {
            size: -1
          }
        }
      }
    }
  }
  attr {
    key: "dtype"
    value {
      type: DT_FLOAT
    }
  }
  attr {
    key: "seed"
    value {
      i: 0
    }
  }
  attr {
    key: "seed2"
    value {
      i: 0
    }
  }
}
node {
  name: "layer2/dropout/random_uniform/sub"
  op: "Sub"
  input: "layer2/dropout/random_uniform/max"
  input: "layer2/dropout/random_uniform/min"
  attr {
    key: "T"
    value {
      type: DT_FLOAT
    }
  }
  attr {
    key: "_output_shapes"
    value {
      list {
        shape {
        }
      }
    }
  }
}
node {
  name: "layer2/dropout/random_uniform/mul"
  op: "Mul"
  input: "layer2/dropout/random_uniform/RandomUniform"
  input: "layer2/dropout/random_uniform/sub"
  attr {
    key: "T"
    value {
      type: DT_FLOAT
    }
  }
  attr {
    key: "_output_shapes"
    value {
      list {
        shape {
          dim {
            size: -1
          }
          dim {
            size: -1
          }
        }
      }
    }
  }
}
node {
  name: "layer2/dropout/random_uniform"
  op: "Add"
  input: "layer2/dropout/random_uniform/mul"
  input: "layer2/dropout/random_uniform/min"
  attr {
    key: "T"
    value {
      type: DT_FLOAT
    }
  }
  attr {
    key: "_output_shapes"
    value {
      list {
        shape {
          dim {
            size: -1
          }
          dim {
            size: -1
          }
        }
      }
    }
  }
}
node {
  name: "layer2/dropout/add"
  op: "Add"
  input: "input/Placeholder"
  input: "layer2/dropout/random_uniform"
  attr {
    key: "T"
    value {
      type: DT_FLOAT
    }
  }
  attr {
    key: "_output_shapes"
    value {
      list {
        shape {
          unknown_rank: true
        }
      }
    }
  }
}
node {
  name: "layer2/dropout/Floor"
  op: "Floor"
  input: "layer2/dropout/add"
  attr {
    key: "T"
    value {
      type: DT_FLOAT
    }
  }
  attr {
    key: "_output_shapes"
    value {
      list {
        shape {
          unknown_rank: true
        }
      }
    }
  }
}
node {
  name: "layer2/dropout/Inv"
  op: "Inv"
  input: "input/Placeholder"
  attr {
    key: "T"
    value {
      type: DT_FLOAT
    }
  }
  attr {
    key: "_output_shapes"
    value {
      list {
        shape {
          unknown_rank: true
        }
      }
    }
  }
}
node {
  name: "layer2/dropout/mul"
  op: "Mul"
  input: "layer2/relu"
  input: "layer2/dropout/Inv"
  attr {
    key: "T"
    value {
      type: DT_FLOAT
    }
  }
  attr {
    key: "_output_shapes"
    value {
      list {
        shape {
          unknown_rank: true
        }
      }
    }
  }
}
node {
  name: "layer2/dropout/mul_1"
  op: "Mul"
  input: "layer2/dropout/mul"
  input: "layer2/dropout/Floor"
  attr {
    key: "T"
    value {
      type: DT_FLOAT
    }
  }
  attr {
    key: "_output_shapes"
    value {
      list {
        shape {
          dim {
            size: -1
          }
          dim {
            size: 10
          }
        }
      }
    }
  }
}
node {
  name: "predictions"
  op: "Softmax"
  input: "layer2/dropout/mul_1"
  attr {
    key: "T"
    value {
      type: DT_FLOAT
    }
  }
  attr {
    key: "_output_shapes"
    value {
      list {
        shape {
          dim {
            size: -1
          }
          dim {
            size: 10
          }
        }
      }
    }
  }
}
node {
  name: "cross_entropy/Log"
  op: "Log"
  input: "predictions"
  attr {
    key: "T"
    value {
      type: DT_FLOAT
    }
  }
  attr {
    key: "_output_shapes"
    value {
      list {
        shape {
          dim {
            size: -1
          }
          dim {
            size: 10
          }
        }
      }
    }
  }
}
node {
  name: "cross_entropy/mul"
  op: "Mul"
  input: "input/y-input"
  input: "cross_entropy/Log"
  attr {
    key: "T"
    value {
      type: DT_FLOAT
    }
  }
  attr {
    key: "_output_shapes"
    value {
      list {
        shape {
          dim {
            size: -1
          }
          dim {
            size: 10
          }
        }
      }
    }
  }
}
node {
  name: "cross_entropy/total/Rank"
  op: "Rank"
  input: "cross_entropy/mul"
  attr {
    key: "T"
    value {
      type: DT_FLOAT
    }
  }
  attr {
    key: "_output_shapes"
    value {
      list {
        shape {
        }
      }
    }
  }
}
node {
  name: "cross_entropy/total/range/start"
  op: "Const"
  attr {
    key: "_output_shapes"
    value {
      list {
        shape {
        }
      }
    }
  }
  attr {
    key: "dtype"
    value {
      type: DT_INT32
    }
  }
  attr {
    key: "value"
    value {
      tensor {
        dtype: DT_INT32
        tensor_shape {
        }
        int_val: 0
      }
    }
  }
}
node {
  name: "cross_entropy/total/range/delta"
  op: "Const"
  attr {
    key: "_output_shapes"
    value {
      list {
        shape {
        }
      }
    }
  }
  attr {
    key: "dtype"
    value {
      type: DT_INT32
    }
  }
  attr {
    key: "value"
    value {
      tensor {
        dtype: DT_INT32
        tensor_shape {
        }
        int_val: 1
      }
    }
  }
}
node {
  name: "cross_entropy/total/range"
  op: "Range"
  input: "cross_entropy/total/range/start"
  input: "cross_entropy/total/Rank"
  input: "cross_entropy/total/range/delta"
  attr {
    key: "_output_shapes"
    value {
      list {
        shape {
          dim {
            size: 2
          }
        }
      }
    }
  }
}
node {
  name: "cross_entropy/total/Sum"
  op: "Sum"
  input: "cross_entropy/mul"
  input: "cross_entropy/total/range"
  attr {
    key: "T"
    value {
      type: DT_FLOAT
    }
  }
  attr {
    key: "_output_shapes"
    value {
      list {
        shape {
        }
      }
    }
  }
  attr {
    key: "keep_dims"
    value {
      b: false
    }
  }
}
node {
  name: "cross_entropy/total/Neg"
  op: "Neg"
  input: "cross_entropy/total/Sum"
  attr {
    key: "T"
    value {
      type: DT_FLOAT
    }
  }
  attr {
    key: "_output_shapes"
    value {
      list {
        shape {
        }
      }
    }
  }
}
node {
  name: "cross_entropy/normalized/Rank"
  op: "Rank"
  input: "cross_entropy/mul"
  attr {
    key: "T"
    value {
      type: DT_FLOAT
    }
  }
  attr {
    key: "_output_shapes"
    value {
      list {
        shape {
        }
      }
    }
  }
}
node {
  name: "cross_entropy/normalized/range/start"
  op: "Const"
  attr {
    key: "_output_shapes"
    value {
      list {
        shape {
        }
      }
    }
  }
  attr {
    key: "dtype"
    value {
      type: DT_INT32
    }
  }
  attr {
    key: "value"
    value {
      tensor {
        dtype: DT_INT32
        tensor_shape {
        }
        int_val: 0
      }
    }
  }
}
node {
  name: "cross_entropy/normalized/range/delta"
  op: "Const"
  attr {
    key: "_output_shapes"
    value {
      list {
        shape {
        }
      }
    }
  }
  attr {
    key: "dtype"
    value {
      type: DT_INT32
    }
  }
  attr {
    key: "value"
    value {
      tensor {
        dtype: DT_INT32
        tensor_shape {
        }
        int_val: 1
      }
    }
  }
}
node {
  name: "cross_entropy/normalized/range"
  op: "Range"
  input: "cross_entropy/normalized/range/start"
  input: "cross_entropy/normalized/Rank"
  input: "cross_entropy/normalized/range/delta"
  attr {
    key: "_output_shapes"
    value {
      list {
        shape {
          dim {
            size: 2
          }
        }
      }
    }
  }
}
node {
  name: "cross_entropy/normalized/Mean"
  op: "Mean"
  input: "cross_entropy/mul"
  input: "cross_entropy/normalized/range"
  attr {
    key: "T"
    value {
      type: DT_FLOAT
    }
  }
  attr {
    key: "_output_shapes"
    value {
      list {
        shape {
        }
      }
    }
  }
  attr {
    key: "keep_dims"
    value {
      b: false
    }
  }
}
node {
  name: "cross_entropy/normalized/Neg"
  op: "Neg"
  input: "cross_entropy/normalized/Mean"
  attr {
    key: "T"
    value {
      type: DT_FLOAT
    }
  }
  attr {
    key: "_output_shapes"
    value {
      list {
        shape {
        }
      }
    }
  }
}
node {
  name: "cross_entropy/ScalarSummary/tags"
  op: "Const"
  attr {
    key: "_output_shapes"
    value {
      list {
        shape {
        }
      }
    }
  }
  attr {
    key: "dtype"
    value {
      type: DT_STRING
    }
  }
  attr {
    key: "value"
    value {
      tensor {
        dtype: DT_STRING
        tensor_shape {
        }
        string_val: "cross entropy"
      }
    }
  }
}
node {
  name: "cross_entropy/ScalarSummary"
  op: "ScalarSummary"
  input: "cross_entropy/ScalarSummary/tags"
  input: "cross_entropy/normalized/Neg"
  attr {
    key: "T"
    value {
      type: DT_FLOAT
    }
  }
  attr {
    key: "_output_shapes"
    value {
      list {
        shape {
        }
      }
    }
  }
}
node {
  name: "train/gradients/Shape"
  op: "Shape"
  input: "cross_entropy/total/Neg"
  attr {
    key: "T"
    value {
      type: DT_FLOAT
    }
  }
  attr {
    key: "_output_shapes"
    value {
      list {
        shape {
          dim {
          }
        }
      }
    }
  }
}
node {
  name: "train/gradients/Const"
  op: "Const"
  attr {
    key: "_output_shapes"
    value {
      list {
        shape {
        }
      }
    }
  }
  attr {
    key: "dtype"
    value {
      type: DT_FLOAT
    }
  }
  attr {
    key: "value"
    value {
      tensor {
        dtype: DT_FLOAT
        tensor_shape {
        }
        float_val: 1.0
      }
    }
  }
}
node {
  name: "train/gradients/Fill"
  op: "Fill"
  input: "train/gradients/Shape"
  input: "train/gradients/Const"
  attr {
    key: "T"
    value {
      type: DT_FLOAT
    }
  }
  attr {
    key: "_output_shapes"
    value {
      list {
        shape {
        }
      }
    }
  }
}
node {
  name: "train/gradients/cross_entropy/total/Neg_grad/Neg"
  op: "Neg"
  input: "train/gradients/Fill"
  attr {
    key: "T"
    value {
      type: DT_FLOAT
    }
  }
  attr {
    key: "_output_shapes"
    value {
      list {
        shape {
        }
      }
    }
  }
}
node {
  name: "train/gradients/cross_entropy/total/Sum_grad/Shape"
  op: "Shape"
  input: "cross_entropy/mul"
  attr {
    key: "T"
    value {
      type: DT_FLOAT
    }
  }
  attr {
    key: "_output_shapes"
    value {
      list {
        shape {
          dim {
            size: 2
          }
        }
      }
    }
  }
}
node {
  name: "train/gradients/cross_entropy/total/Sum_grad/Rank"
  op: "Rank"
  input: "cross_entropy/mul"
  attr {
    key: "T"
    value {
      type: DT_FLOAT
    }
  }
  attr {
    key: "_output_shapes"
    value {
      list {
        shape {
        }
      }
    }
  }
}
node {
  name: "train/gradients/cross_entropy/total/Sum_grad/Shape_1"
  op: "Shape"
  input: "cross_entropy/total/range"
  attr {
    key: "T"
    value {
      type: DT_INT32
    }
  }
  attr {
    key: "_output_shapes"
    value {
      list {
        shape {
          dim {
            size: 1
          }
        }
      }
    }
  }
}
node {
  name: "train/gradients/cross_entropy/total/Sum_grad/range/start"
  op: "Const"
  attr {
    key: "_output_shapes"
    value {
      list {
        shape {
        }
      }
    }
  }
  attr {
    key: "dtype"
    value {
      type: DT_INT32
    }
  }
  attr {
    key: "value"
    value {
      tensor {
        dtype: DT_INT32
        tensor_shape {
        }
        int_val: 0
      }
    }
  }
}
node {
  name: "train/gradients/cross_entropy/total/Sum_grad/range/delta"
  op: "Const"
  attr {
    key: "_output_shapes"
    value {
      list {
        shape {
        }
      }
    }
  }
  attr {
    key: "dtype"
    value {
      type: DT_INT32
    }
  }
  attr {
    key: "value"
    value {
      tensor {
        dtype: DT_INT32
        tensor_shape {
        }
        int_val: 1
      }
    }
  }
}
node {
  name: "train/gradients/cross_entropy/total/Sum_grad/range"
  op: "Range"
  input: "train/gradients/cross_entropy/total/Sum_grad/range/start"
  input: "train/gradients/cross_entropy/total/Sum_grad/Rank"
  input: "train/gradients/cross_entropy/total/Sum_grad/range/delta"
  attr {
    key: "_output_shapes"
    value {
      list {
        shape {
          dim {
            size: 2
          }
        }
      }
    }
  }
}
node {
  name: "train/gradients/cross_entropy/total/Sum_grad/Fill/value"
  op: "Const"
  attr {
    key: "_output_shapes"
    value {
      list {
        shape {
        }
      }
    }
  }
  attr {
    key: "dtype"
    value {
      type: DT_INT32
    }
  }
  attr {
    key: "value"
    value {
      tensor {
        dtype: DT_INT32
        tensor_shape {
        }
        int_val: 1
      }
    }
  }
}
node {
  name: "train/gradients/cross_entropy/total/Sum_grad/Fill"
  op: "Fill"
  input: "train/gradients/cross_entropy/total/Sum_grad/Shape_1"
  input: "train/gradients/cross_entropy/total/Sum_grad/Fill/value"
  attr {
    key: "T"
    value {
      type: DT_INT32
    }
  }
  attr {
    key: "_output_shapes"
    value {
      list {
        shape {
          dim {
            size: 2
          }
        }
      }
    }
  }
}
node {
  name: "train/gradients/cross_entropy/total/Sum_grad/DynamicStitch"
  op: "DynamicStitch"
  input: "train/gradients/cross_entropy/total/Sum_grad/range"
  input: "cross_entropy/total/range"
  input: "train/gradients/cross_entropy/total/Sum_grad/Shape"
  input: "train/gradients/cross_entropy/total/Sum_grad/Fill"
  attr {
    key: "N"
    value {
      i: 2
    }
  }
  attr {
    key: "T"
    value {
      type: DT_INT32
    }
  }
  attr {
    key: "_output_shapes"
    value {
      list {
        shape {
          dim {
            size: -1
          }
        }
      }
    }
  }
}
node {
  name: "train/gradients/cross_entropy/total/Sum_grad/floordiv"
  op: "Div"
  input: "train/gradients/cross_entropy/total/Sum_grad/Shape"
  input: "train/gradients/cross_entropy/total/Sum_grad/DynamicStitch"
  attr {
    key: "T"
    value {
      type: DT_INT32
    }
  }
  attr {
    key: "_output_shapes"
    value {
      list {
        shape {
          dim {
            size: 2
          }
        }
      }
    }
  }
}
node {
  name: "train/gradients/cross_entropy/total/Sum_grad/Reshape"
  op: "Reshape"
  input: "train/gradients/cross_entropy/total/Neg_grad/Neg"
  input: "train/gradients/cross_entropy/total/Sum_grad/DynamicStitch"
  attr {
    key: "T"
    value {
      type: DT_FLOAT
    }
  }
  attr {
    key: "_output_shapes"
    value {
      list {
        shape {
          unknown_rank: true
        }
      }
    }
  }
}
node {
  name: "train/gradients/cross_entropy/total/Sum_grad/Tile"
  op: "Tile"
  input: "train/gradients/cross_entropy/total/Sum_grad/Reshape"
  input: "train/gradients/cross_entropy/total/Sum_grad/floordiv"
  attr {
    key: "T"
    value {
      type: DT_FLOAT
    }
  }
  attr {
    key: "_output_shapes"
    value {
      list {
        shape {
          dim {
            size: -1
          }
          dim {
            size: -1
          }
        }
      }
    }
  }
}
node {
  name: "train/gradients/cross_entropy/mul_grad/Shape"
  op: "Shape"
  input: "input/y-input"
  attr {
    key: "T"
    value {
      type: DT_FLOAT
    }
  }
  attr {
    key: "_output_shapes"
    value {
      list {
        shape {
          dim {
            size: 2
          }
        }
      }
    }
  }
}
node {
  name: "train/gradients/cross_entropy/mul_grad/Shape_1"
  op: "Shape"
  input: "cross_entropy/Log"
  attr {
    key: "T"
    value {
      type: DT_FLOAT
    }
  }
  attr {
    key: "_output_shapes"
    value {
      list {
        shape {
          dim {
            size: 2
          }
        }
      }
    }
  }
}
node {
  name: "train/gradients/cross_entropy/mul_grad/BroadcastGradientArgs"
  op: "BroadcastGradientArgs"
  input: "train/gradients/cross_entropy/mul_grad/Shape"
  input: "train/gradients/cross_entropy/mul_grad/Shape_1"
  attr {
    key: "_output_shapes"
    value {
      list {
        shape {
          dim {
            size: -1
          }
        }
        shape {
          dim {
            size: -1
          }
        }
      }
    }
  }
}
node {
  name: "train/gradients/cross_entropy/mul_grad/mul"
  op: "Mul"
  input: "train/gradients/cross_entropy/total/Sum_grad/Tile"
  input: "cross_entropy/Log"
  attr {
    key: "T"
    value {
      type: DT_FLOAT
    }
  }
  attr {
    key: "_output_shapes"
    value {
      list {
        shape {
          dim {
            size: -1
          }
          dim {
            size: 10
          }
        }
      }
    }
  }
}
node {
  name: "train/gradients/cross_entropy/mul_grad/Sum"
  op: "Sum"
  input: "train/gradients/cross_entropy/mul_grad/mul"
  input: "train/gradients/cross_entropy/mul_grad/BroadcastGradientArgs"
  attr {
    key: "T"
    value {
      type: DT_FLOAT
    }
  }
  attr {
    key: "_output_shapes"
    value {
      list {
        shape {
          unknown_rank: true
        }
      }
    }
  }
  attr {
    key: "keep_dims"
    value {
      b: false
    }
  }
}
node {
  name: "train/gradients/cross_entropy/mul_grad/Reshape"
  op: "Reshape"
  input: "train/gradients/cross_entropy/mul_grad/Sum"
  input: "train/gradients/cross_entropy/mul_grad/Shape"
  attr {
    key: "T"
    value {
      type: DT_FLOAT
    }
  }
  attr {
    key: "_output_shapes"
    value {
      list {
        shape {
          dim {
            size: -1
          }
          dim {
            size: -1
          }
        }
      }
    }
  }
}
node {
  name: "train/gradients/cross_entropy/mul_grad/mul_1"
  op: "Mul"
  input: "input/y-input"
  input: "train/gradients/cross_entropy/total/Sum_grad/Tile"
  attr {
    key: "T"
    value {
      type: DT_FLOAT
    }
  }
  attr {
    key: "_output_shapes"
    value {
      list {
        shape {
          dim {
            size: -1
          }
          dim {
            size: 10
          }
        }
      }
    }
  }
}
node {
  name: "train/gradients/cross_entropy/mul_grad/Sum_1"
  op: "Sum"
  input: "train/gradients/cross_entropy/mul_grad/mul_1"
  input: "train/gradients/cross_entropy/mul_grad/BroadcastGradientArgs:1"
  attr {
    key: "T"
    value {
      type: DT_FLOAT
    }
  }
  attr {
    key: "_output_shapes"
    value {
      list {
        shape {
          unknown_rank: true
        }
      }
    }
  }
  attr {
    key: "keep_dims"
    value {
      b: false
    }
  }
}
node {
  name: "train/gradients/cross_entropy/mul_grad/Reshape_1"
  op: "Reshape"
  input: "train/gradients/cross_entropy/mul_grad/Sum_1"
  input: "train/gradients/cross_entropy/mul_grad/Shape_1"
  attr {
    key: "T"
    value {
      type: DT_FLOAT
    }
  }
  attr {
    key: "_output_shapes"
    value {
      list {
        shape {
          dim {
            size: -1
          }
          dim {
            size: -1
          }
        }
      }
    }
  }
}
node {
  name: "train/gradients/cross_entropy/mul_grad/tuple/group_deps"
  op: "NoOp"
  input: "^train/gradients/cross_entropy/mul_grad/Reshape"
  input: "^train/gradients/cross_entropy/mul_grad/Reshape_1"
}
node {
  name: "train/gradients/cross_entropy/mul_grad/tuple/control_dependency"
  op: "Identity"
  input: "train/gradients/cross_entropy/mul_grad/Reshape"
  input: "^train/gradients/cross_entropy/mul_grad/tuple/group_deps"
  attr {
    key: "T"
    value {
      type: DT_FLOAT
    }
  }
  attr {
    key: "_class"
    value {
      list {
        s: "loc:@train/gradients/cross_entropy/mul_grad/Reshape"
      }
    }
  }
  attr {
    key: "_output_shapes"
    value {
      list {
        shape {
          dim {
            size: -1
          }
          dim {
            size: -1
          }
        }
      }
    }
  }
}
node {
  name: "train/gradients/cross_entropy/mul_grad/tuple/control_dependency_1"
  op: "Identity"
  input: "train/gradients/cross_entropy/mul_grad/Reshape_1"
  input: "^train/gradients/cross_entropy/mul_grad/tuple/group_deps"
  attr {
    key: "T"
    value {
      type: DT_FLOAT
    }
  }
  attr {
    key: "_class"
    value {
      list {
        s: "loc:@train/gradients/cross_entropy/mul_grad/Reshape_1"
      }
    }
  }
  attr {
    key: "_output_shapes"
    value {
      list {
        shape {
          dim {
            size: -1
          }
          dim {
            size: -1
          }
        }
      }
    }
  }
}
node {
  name: "train/gradients/cross_entropy/Log_grad/Inv"
  op: "Inv"
  input: "predictions"
  input: "^train/gradients/cross_entropy/mul_grad/tuple/control_dependency_1"
  attr {
    key: "T"
    value {
      type: DT_FLOAT
    }
  }
  attr {
    key: "_output_shapes"
    value {
      list {
        shape {
          dim {
            size: -1
          }
          dim {
            size: 10
          }
        }
      }
    }
  }
}
node {
  name: "train/gradients/cross_entropy/Log_grad/mul"
  op: "Mul"
  input: "train/gradients/cross_entropy/mul_grad/tuple/control_dependency_1"
  input: "train/gradients/cross_entropy/Log_grad/Inv"
  attr {
    key: "T"
    value {
      type: DT_FLOAT
    }
  }
  attr {
    key: "_output_shapes"
    value {
      list {
        shape {
          dim {
            size: -1
          }
          dim {
            size: 10
          }
        }
      }
    }
  }
}
node {
  name: "train/gradients/predictions_grad/mul"
  op: "Mul"
  input: "train/gradients/cross_entropy/Log_grad/mul"
  input: "predictions"
  attr {
    key: "T"
    value {
      type: DT_FLOAT
    }
  }
  attr {
    key: "_output_shapes"
    value {
      list {
        shape {
          dim {
            size: -1
          }
          dim {
            size: 10
          }
        }
      }
    }
  }
}
node {
  name: "train/gradients/predictions_grad/Sum/reduction_indices"
  op: "Const"
  attr {
    key: "_output_shapes"
    value {
      list {
        shape {
          dim {
            size: 1
          }
        }
      }
    }
  }
  attr {
    key: "dtype"
    value {
      type: DT_INT32
    }
  }
  attr {
    key: "value"
    value {
      tensor {
        dtype: DT_INT32
        tensor_shape {
          dim {
            size: 1
          }
        }
        int_val: 1
      }
    }
  }
}
node {
  name: "train/gradients/predictions_grad/Sum"
  op: "Sum"
  input: "train/gradients/predictions_grad/mul"
  input: "train/gradients/predictions_grad/Sum/reduction_indices"
  attr {
    key: "T"
    value {
      type: DT_FLOAT
    }
  }
  attr {
    key: "_output_shapes"
    value {
      list {
        shape {
          dim {
            size: -1
          }
        }
      }
    }
  }
  attr {
    key: "keep_dims"
    value {
      b: false
    }
  }
}
node {
  name: "train/gradients/predictions_grad/Reshape/shape"
  op: "Const"
  attr {
    key: "_output_shapes"
    value {
      list {
        shape {
          dim {
            size: 2
          }
        }
      }
    }
  }
  attr {
    key: "dtype"
    value {
      type: DT_INT32
    }
  }
  attr {
    key: "value"
    value {
      tensor {
        dtype: DT_INT32
        tensor_shape {
          dim {
            size: 2
          }
        }
        tensor_content: "\377\377\377\377\001\000\000\000"
      }
    }
  }
}
node {
  name: "train/gradients/predictions_grad/Reshape"
  op: "Reshape"
  input: "train/gradients/predictions_grad/Sum"
  input: "train/gradients/predictions_grad/Reshape/shape"
  attr {
    key: "T"
    value {
      type: DT_FLOAT
    }
  }
  attr {
    key: "_output_shapes"
    value {
      list {
        shape {
          dim {
            size: -1
          }
          dim {
            size: 1
          }
        }
      }
    }
  }
}
node {
  name: "train/gradients/predictions_grad/sub"
  op: "Sub"
  input: "train/gradients/cross_entropy/Log_grad/mul"
  input: "train/gradients/predictions_grad/Reshape"
  attr {
    key: "T"
    value {
      type: DT_FLOAT
    }
  }
  attr {
    key: "_output_shapes"
    value {
      list {
        shape {
          dim {
            size: -1
          }
          dim {
            size: 10
          }
        }
      }
    }
  }
}
node {
  name: "train/gradients/predictions_grad/mul_1"
  op: "Mul"
  input: "train/gradients/predictions_grad/sub"
  input: "predictions"
  attr {
    key: "T"
    value {
      type: DT_FLOAT
    }
  }
  attr {
    key: "_output_shapes"
    value {
      list {
        shape {
          dim {
            size: -1
          }
          dim {
            size: 10
          }
        }
      }
    }
  }
}
node {
  name: "train/gradients/layer2/dropout/mul_1_grad/Shape"
  op: "Shape"
  input: "layer2/dropout/mul"
  attr {
    key: "T"
    value {
      type: DT_FLOAT
    }
  }
  attr {
    key: "_output_shapes"
    value {
      list {
        shape {
          dim {
            size: -1
          }
        }
      }
    }
  }
}
node {
  name: "train/gradients/layer2/dropout/mul_1_grad/Shape_1"
  op: "Shape"
  input: "layer2/dropout/Floor"
  attr {
    key: "T"
    value {
      type: DT_FLOAT
    }
  }
  attr {
    key: "_output_shapes"
    value {
      list {
        shape {
          dim {
            size: -1
          }
        }
      }
    }
  }
}
node {
  name: "train/gradients/layer2/dropout/mul_1_grad/BroadcastGradientArgs"
  op: "BroadcastGradientArgs"
  input: "train/gradients/layer2/dropout/mul_1_grad/Shape"
  input: "train/gradients/layer2/dropout/mul_1_grad/Shape_1"
  attr {
    key: "_output_shapes"
    value {
      list {
        shape {
          dim {
            size: -1
          }
        }
        shape {
          dim {
            size: -1
          }
        }
      }
    }
  }
}
node {
  name: "train/gradients/layer2/dropout/mul_1_grad/mul"
  op: "Mul"
  input: "train/gradients/predictions_grad/mul_1"
  input: "layer2/dropout/Floor"
  attr {
    key: "T"
    value {
      type: DT_FLOAT
    }
  }
  attr {
    key: "_output_shapes"
    value {
      list {
        shape {
          unknown_rank: true
        }
      }
    }
  }
}
node {
  name: "train/gradients/layer2/dropout/mul_1_grad/Sum"
  op: "Sum"
  input: "train/gradients/layer2/dropout/mul_1_grad/mul"
  input: "train/gradients/layer2/dropout/mul_1_grad/BroadcastGradientArgs"
  attr {
    key: "T"
    value {
      type: DT_FLOAT
    }
  }
  attr {
    key: "_output_shapes"
    value {
      list {
        shape {
          unknown_rank: true
        }
      }
    }
  }
  attr {
    key: "keep_dims"
    value {
      b: false
    }
  }
}
node {
  name: "train/gradients/layer2/dropout/mul_1_grad/Reshape"
  op: "Reshape"
  input: "train/gradients/layer2/dropout/mul_1_grad/Sum"
  input: "train/gradients/layer2/dropout/mul_1_grad/Shape"
  attr {
    key: "T"
    value {
      type: DT_FLOAT
    }
  }
  attr {
    key: "_output_shapes"
    value {
      list {
        shape {
          unknown_rank: true
        }
      }
    }
  }
}
node {
  name: "train/gradients/layer2/dropout/mul_1_grad/mul_1"
  op: "Mul"
  input: "layer2/dropout/mul"
  input: "train/gradients/predictions_grad/mul_1"
  attr {
    key: "T"
    value {
      type: DT_FLOAT
    }
  }
  attr {
    key: "_output_shapes"
    value {
      list {
        shape {
          unknown_rank: true
        }
      }
    }
  }
}
node {
  name: "train/gradients/layer2/dropout/mul_1_grad/Sum_1"
  op: "Sum"
  input: "train/gradients/layer2/dropout/mul_1_grad/mul_1"
  input: "train/gradients/layer2/dropout/mul_1_grad/BroadcastGradientArgs:1"
  attr {
    key: "T"
    value {
      type: DT_FLOAT
    }
  }
  attr {
    key: "_output_shapes"
    value {
      list {
        shape {
          unknown_rank: true
        }
      }
    }
  }
  attr {
    key: "keep_dims"
    value {
      b: false
    }
  }
}
node {
  name: "train/gradients/layer2/dropout/mul_1_grad/Reshape_1"
  op: "Reshape"
  input: "train/gradients/layer2/dropout/mul_1_grad/Sum_1"
  input: "train/gradients/layer2/dropout/mul_1_grad/Shape_1"
  attr {
    key: "T"
    value {
      type: DT_FLOAT
    }
  }
  attr {
    key: "_output_shapes"
    value {
      list {
        shape {
          unknown_rank: true
        }
      }
    }
  }
}
node {
  name: "train/gradients/layer2/dropout/mul_1_grad/tuple/group_deps"
  op: "NoOp"
  input: "^train/gradients/layer2/dropout/mul_1_grad/Reshape"
  input: "^train/gradients/layer2/dropout/mul_1_grad/Reshape_1"
}
node {
  name: "train/gradients/layer2/dropout/mul_1_grad/tuple/control_dependency"
  op: "Identity"
  input: "train/gradients/layer2/dropout/mul_1_grad/Reshape"
  input: "^train/gradients/layer2/dropout/mul_1_grad/tuple/group_deps"
  attr {
    key: "T"
    value {
      type: DT_FLOAT
    }
  }
  attr {
    key: "_class"
    value {
      list {
        s: "loc:@train/gradients/layer2/dropout/mul_1_grad/Reshape"
      }
    }
  }
  attr {
    key: "_output_shapes"
    value {
      list {
        shape {
          unknown_rank: true
        }
      }
    }
  }
}
node {
  name: "train/gradients/layer2/dropout/mul_1_grad/tuple/control_dependency_1"
  op: "Identity"
  input: "train/gradients/layer2/dropout/mul_1_grad/Reshape_1"
  input: "^train/gradients/layer2/dropout/mul_1_grad/tuple/group_deps"
  attr {
    key: "T"
    value {
      type: DT_FLOAT
    }
  }
  attr {
    key: "_class"
    value {
      list {
        s: "loc:@train/gradients/layer2/dropout/mul_1_grad/Reshape_1"
      }
    }
  }
  attr {
    key: "_output_shapes"
    value {
      list {
        shape {
          unknown_rank: true
        }
      }
    }
  }
}
node {
  name: "train/gradients/layer2/dropout/mul_grad/Shape"
  op: "Shape"
  input: "layer2/relu"
  attr {
    key: "T"
    value {
      type: DT_FLOAT
    }
  }
  attr {
    key: "_output_shapes"
    value {
      list {
        shape {
          dim {
            size: 2
          }
        }
      }
    }
  }
}
node {
  name: "train/gradients/layer2/dropout/mul_grad/Shape_1"
  op: "Shape"
  input: "layer2/dropout/Inv"
  attr {
    key: "T"
    value {
      type: DT_FLOAT
    }
  }
  attr {
    key: "_output_shapes"
    value {
      list {
        shape {
          dim {
            size: -1
          }
        }
      }
    }
  }
}
node {
  name: "train/gradients/layer2/dropout/mul_grad/BroadcastGradientArgs"
  op: "BroadcastGradientArgs"
  input: "train/gradients/layer2/dropout/mul_grad/Shape"
  input: "train/gradients/layer2/dropout/mul_grad/Shape_1"
  attr {
    key: "_output_shapes"
    value {
      list {
        shape {
          dim {
            size: -1
          }
        }
        shape {
          dim {
            size: -1
          }
        }
      }
    }
  }
}
node {
  name: "train/gradients/layer2/dropout/mul_grad/mul"
  op: "Mul"
  input: "train/gradients/layer2/dropout/mul_1_grad/tuple/control_dependency"
  input: "layer2/dropout/Inv"
  attr {
    key: "T"
    value {
      type: DT_FLOAT
    }
  }
  attr {
    key: "_output_shapes"
    value {
      list {
        shape {
          unknown_rank: true
        }
      }
    }
  }
}
node {
  name: "train/gradients/layer2/dropout/mul_grad/Sum"
  op: "Sum"
  input: "train/gradients/layer2/dropout/mul_grad/mul"
  input: "train/gradients/layer2/dropout/mul_grad/BroadcastGradientArgs"
  attr {
    key: "T"
    value {
      type: DT_FLOAT
    }
  }
  attr {
    key: "_output_shapes"
    value {
      list {
        shape {
          unknown_rank: true
        }
      }
    }
  }
  attr {
    key: "keep_dims"
    value {
      b: false
    }
  }
}
node {
  name: "train/gradients/layer2/dropout/mul_grad/Reshape"
  op: "Reshape"
  input: "train/gradients/layer2/dropout/mul_grad/Sum"
  input: "train/gradients/layer2/dropout/mul_grad/Shape"
  attr {
    key: "T"
    value {
      type: DT_FLOAT
    }
  }
  attr {
    key: "_output_shapes"
    value {
      list {
        shape {
          dim {
            size: -1
          }
          dim {
            size: -1
          }
        }
      }
    }
  }
}
node {
  name: "train/gradients/layer2/dropout/mul_grad/mul_1"
  op: "Mul"
  input: "layer2/relu"
  input: "train/gradients/layer2/dropout/mul_1_grad/tuple/control_dependency"
  attr {
    key: "T"
    value {
      type: DT_FLOAT
    }
  }
  attr {
    key: "_output_shapes"
    value {
      list {
        shape {
          unknown_rank: true
        }
      }
    }
  }
}
node {
  name: "train/gradients/layer2/dropout/mul_grad/Sum_1"
  op: "Sum"
  input: "train/gradients/layer2/dropout/mul_grad/mul_1"
  input: "train/gradients/layer2/dropout/mul_grad/BroadcastGradientArgs:1"
  attr {
    key: "T"
    value {
      type: DT_FLOAT
    }
  }
  attr {
    key: "_output_shapes"
    value {
      list {
        shape {
          unknown_rank: true
        }
      }
    }
  }
  attr {
    key: "keep_dims"
    value {
      b: false
    }
  }
}
node {
  name: "train/gradients/layer2/dropout/mul_grad/Reshape_1"
  op: "Reshape"
  input: "train/gradients/layer2/dropout/mul_grad/Sum_1"
  input: "train/gradients/layer2/dropout/mul_grad/Shape_1"
  attr {
    key: "T"
    value {
      type: DT_FLOAT
    }
  }
  attr {
    key: "_output_shapes"
    value {
      list {
        shape {
          unknown_rank: true
        }
      }
    }
  }
}
node {
  name: "train/gradients/layer2/dropout/mul_grad/tuple/group_deps"
  op: "NoOp"
  input: "^train/gradients/layer2/dropout/mul_grad/Reshape"
  input: "^train/gradients/layer2/dropout/mul_grad/Reshape_1"
}
node {
  name: "train/gradients/layer2/dropout/mul_grad/tuple/control_dependency"
  op: "Identity"
  input: "train/gradients/layer2/dropout/mul_grad/Reshape"
  input: "^train/gradients/layer2/dropout/mul_grad/tuple/group_deps"
  attr {
    key: "T"
    value {
      type: DT_FLOAT
    }
  }
  attr {
    key: "_class"
    value {
      list {
        s: "loc:@train/gradients/layer2/dropout/mul_grad/Reshape"
      }
    }
  }
  attr {
    key: "_output_shapes"
    value {
      list {
        shape {
          dim {
            size: -1
          }
          dim {
            size: -1
          }
        }
      }
    }
  }
}
node {
  name: "train/gradients/layer2/dropout/mul_grad/tuple/control_dependency_1"
  op: "Identity"
  input: "train/gradients/layer2/dropout/mul_grad/Reshape_1"
  input: "^train/gradients/layer2/dropout/mul_grad/tuple/group_deps"
  attr {
    key: "T"
    value {
      type: DT_FLOAT
    }
  }
  attr {
    key: "_class"
    value {
      list {
        s: "loc:@train/gradients/layer2/dropout/mul_grad/Reshape_1"
      }
    }
  }
  attr {
    key: "_output_shapes"
    value {
      list {
        shape {
          unknown_rank: true
        }
      }
    }
  }
}
node {
  name: "train/gradients/layer2/relu_grad/ReluGrad"
  op: "ReluGrad"
  input: "train/gradients/layer2/dropout/mul_grad/tuple/control_dependency"
  input: "layer2/relu"
  attr {
    key: "T"
    value {
      type: DT_FLOAT
    }
  }
  attr {
    key: "_output_shapes"
    value {
      list {
        shape {
          dim {
            size: -1
          }
          dim {
            size: 10
          }
        }
      }
    }
  }
}
node {
  name: "train/gradients/layer2/Wx_plus_b/add_grad/Shape"
  op: "Shape"
  input: "layer2/Wx_plus_b/MatMul"
  attr {
    key: "T"
    value {
      type: DT_FLOAT
    }
  }
  attr {
    key: "_output_shapes"
    value {
      list {
        shape {
          dim {
            size: 2
          }
        }
      }
    }
  }
}
node {
  name: "train/gradients/layer2/Wx_plus_b/add_grad/Shape_1"
  op: "Shape"
  input: "layer2/biases/Variable/read"
  attr {
    key: "T"
    value {
      type: DT_FLOAT
    }
  }
  attr {
    key: "_output_shapes"
    value {
      list {
        shape {
          dim {
            size: 1
          }
        }
      }
    }
  }
}
node {
  name: "train/gradients/layer2/Wx_plus_b/add_grad/BroadcastGradientArgs"
  op: "BroadcastGradientArgs"
  input: "train/gradients/layer2/Wx_plus_b/add_grad/Shape"
  input: "train/gradients/layer2/Wx_plus_b/add_grad/Shape_1"
  attr {
    key: "_output_shapes"
    value {
      list {
        shape {
          dim {
            size: -1
          }
        }
        shape {
          dim {
            size: -1
          }
        }
      }
    }
  }
}
node {
  name: "train/gradients/layer2/Wx_plus_b/add_grad/Sum"
  op: "Sum"
  input: "train/gradients/layer2/relu_grad/ReluGrad"
  input: "train/gradients/layer2/Wx_plus_b/add_grad/BroadcastGradientArgs"
  attr {
    key: "T"
    value {
      type: DT_FLOAT
    }
  }
  attr {
    key: "_output_shapes"
    value {
      list {
        shape {
          unknown_rank: true
        }
      }
    }
  }
  attr {
    key: "keep_dims"
    value {
      b: false
    }
  }
}
node {
  name: "train/gradients/layer2/Wx_plus_b/add_grad/Reshape"
  op: "Reshape"
  input: "train/gradients/layer2/Wx_plus_b/add_grad/Sum"
  input: "train/gradients/layer2/Wx_plus_b/add_grad/Shape"
  attr {
    key: "T"
    value {
      type: DT_FLOAT
    }
  }
  attr {
    key: "_output_shapes"
    value {
      list {
        shape {
          dim {
            size: -1
          }
          dim {
            size: -1
          }
        }
      }
    }
  }
}
node {
  name: "train/gradients/layer2/Wx_plus_b/add_grad/Sum_1"
  op: "Sum"
  input: "train/gradients/layer2/relu_grad/ReluGrad"
  input: "train/gradients/layer2/Wx_plus_b/add_grad/BroadcastGradientArgs:1"
  attr {
    key: "T"
    value {
      type: DT_FLOAT
    }
  }
  attr {
    key: "_output_shapes"
    value {
      list {
        shape {
          unknown_rank: true
        }
      }
    }
  }
  attr {
    key: "keep_dims"
    value {
      b: false
    }
  }
}
node {
  name: "train/gradients/layer2/Wx_plus_b/add_grad/Reshape_1"
  op: "Reshape"
  input: "train/gradients/layer2/Wx_plus_b/add_grad/Sum_1"
  input: "train/gradients/layer2/Wx_plus_b/add_grad/Shape_1"
  attr {
    key: "T"
    value {
      type: DT_FLOAT
    }
  }
  attr {
    key: "_output_shapes"
    value {
      list {
        shape {
          dim {
            size: 10
          }
        }
      }
    }
  }
}
node {
  name: "train/gradients/layer2/Wx_plus_b/add_grad/tuple/group_deps"
  op: "NoOp"
  input: "^train/gradients/layer2/Wx_plus_b/add_grad/Reshape"
  input: "^train/gradients/layer2/Wx_plus_b/add_grad/Reshape_1"
}
node {
  name: "train/gradients/layer2/Wx_plus_b/add_grad/tuple/control_dependency"
  op: "Identity"
  input: "train/gradients/layer2/Wx_plus_b/add_grad/Reshape"
  input: "^train/gradients/layer2/Wx_plus_b/add_grad/tuple/group_deps"
  attr {
    key: "T"
    value {
      type: DT_FLOAT
    }
  }
  attr {
    key: "_class"
    value {
      list {
        s: "loc:@train/gradients/layer2/Wx_plus_b/add_grad/Reshape"
      }
    }
  }
  attr {
    key: "_output_shapes"
    value {
      list {
        shape {
          dim {
            size: -1
          }
          dim {
            size: -1
          }
        }
      }
    }
  }
}
node {
  name: "train/gradients/layer2/Wx_plus_b/add_grad/tuple/control_dependency_1"
  op: "Identity"
  input: "train/gradients/layer2/Wx_plus_b/add_grad/Reshape_1"
  input: "^train/gradients/layer2/Wx_plus_b/add_grad/tuple/group_deps"
  attr {
    key: "T"
    value {
      type: DT_FLOAT
    }
  }
  attr {
    key: "_class"
    value {
      list {
        s: "loc:@train/gradients/layer2/Wx_plus_b/add_grad/Reshape_1"
      }
    }
  }
  attr {
    key: "_output_shapes"
    value {
      list {
        shape {
          dim {
            size: 10
          }
        }
      }
    }
  }
}
node {
  name: "train/gradients/layer2/Wx_plus_b/MatMul_grad/MatMul"
  op: "MatMul"
  input: "train/gradients/layer2/Wx_plus_b/add_grad/tuple/control_dependency"
  input: "layer2/weights/Variable/read"
  attr {
    key: "T"
    value {
      type: DT_FLOAT
    }
  }
  attr {
    key: "_output_shapes"
    value {
      list {
        shape {
          dim {
            size: -1
          }
          dim {
            size: 50
          }
        }
      }
    }
  }
  attr {
    key: "transpose_a"
    value {
      b: false
    }
  }
  attr {
    key: "transpose_b"
    value {
      b: true
    }
  }
}
node {
  name: "train/gradients/layer2/Wx_plus_b/MatMul_grad/MatMul_1"
  op: "MatMul"
  input: "layer1/dropout/mul_1"
  input: "train/gradients/layer2/Wx_plus_b/add_grad/tuple/control_dependency"
  attr {
    key: "T"
    value {
      type: DT_FLOAT
    }
  }
  attr {
    key: "_output_shapes"
    value {
      list {
        shape {
          dim {
            size: 50
          }
          dim {
            size: -1
          }
        }
      }
    }
  }
  attr {
    key: "transpose_a"
    value {
      b: true
    }
  }
  attr {
    key: "transpose_b"
    value {
      b: false
    }
  }
}
node {
  name: "train/gradients/layer2/Wx_plus_b/MatMul_grad/tuple/group_deps"
  op: "NoOp"
  input: "^train/gradients/layer2/Wx_plus_b/MatMul_grad/MatMul"
  input: "^train/gradients/layer2/Wx_plus_b/MatMul_grad/MatMul_1"
}
node {
  name: "train/gradients/layer2/Wx_plus_b/MatMul_grad/tuple/control_dependency"
  op: "Identity"
  input: "train/gradients/layer2/Wx_plus_b/MatMul_grad/MatMul"
  input: "^train/gradients/layer2/Wx_plus_b/MatMul_grad/tuple/group_deps"
  attr {
    key: "T"
    value {
      type: DT_FLOAT
    }
  }
  attr {
    key: "_class"
    value {
      list {
        s: "loc:@train/gradients/layer2/Wx_plus_b/MatMul_grad/MatMul"
      }
    }
  }
  attr {
    key: "_output_shapes"
    value {
      list {
        shape {
          dim {
            size: -1
          }
          dim {
            size: 50
          }
        }
      }
    }
  }
}
node {
  name: "train/gradients/layer2/Wx_plus_b/MatMul_grad/tuple/control_dependency_1"
  op: "Identity"
  input: "train/gradients/layer2/Wx_plus_b/MatMul_grad/MatMul_1"
  input: "^train/gradients/layer2/Wx_plus_b/MatMul_grad/tuple/group_deps"
  attr {
    key: "T"
    value {
      type: DT_FLOAT
    }
  }
  attr {
    key: "_class"
    value {
      list {
        s: "loc:@train/gradients/layer2/Wx_plus_b/MatMul_grad/MatMul_1"
      }
    }
  }
  attr {
    key: "_output_shapes"
    value {
      list {
        shape {
          dim {
            size: 50
          }
          dim {
            size: -1
          }
        }
      }
    }
  }
}
node {
  name: "train/gradients/layer1/dropout/mul_1_grad/Shape"
  op: "Shape"
  input: "layer1/dropout/mul"
  attr {
    key: "T"
    value {
      type: DT_FLOAT
    }
  }
  attr {
    key: "_output_shapes"
    value {
      list {
        shape {
          dim {
            size: -1
          }
        }
      }
    }
  }
}
node {
  name: "train/gradients/layer1/dropout/mul_1_grad/Shape_1"
  op: "Shape"
  input: "layer1/dropout/Floor"
  attr {
    key: "T"
    value {
      type: DT_FLOAT
    }
  }
  attr {
    key: "_output_shapes"
    value {
      list {
        shape {
          dim {
            size: -1
          }
        }
      }
    }
  }
}
node {
  name: "train/gradients/layer1/dropout/mul_1_grad/BroadcastGradientArgs"
  op: "BroadcastGradientArgs"
  input: "train/gradients/layer1/dropout/mul_1_grad/Shape"
  input: "train/gradients/layer1/dropout/mul_1_grad/Shape_1"
  attr {
    key: "_output_shapes"
    value {
      list {
        shape {
          dim {
            size: -1
          }
        }
        shape {
          dim {
            size: -1
          }
        }
      }
    }
  }
}
node {
  name: "train/gradients/layer1/dropout/mul_1_grad/mul"
  op: "Mul"
  input: "train/gradients/layer2/Wx_plus_b/MatMul_grad/tuple/control_dependency"
  input: "layer1/dropout/Floor"
  attr {
    key: "T"
    value {
      type: DT_FLOAT
    }
  }
  attr {
    key: "_output_shapes"
    value {
      list {
        shape {
          unknown_rank: true
        }
      }
    }
  }
}
node {
  name: "train/gradients/layer1/dropout/mul_1_grad/Sum"
  op: "Sum"
  input: "train/gradients/layer1/dropout/mul_1_grad/mul"
  input: "train/gradients/layer1/dropout/mul_1_grad/BroadcastGradientArgs"
  attr {
    key: "T"
    value {
      type: DT_FLOAT
    }
  }
  attr {
    key: "_output_shapes"
    value {
      list {
        shape {
          unknown_rank: true
        }
      }
    }
  }
  attr {
    key: "keep_dims"
    value {
      b: false
    }
  }
}
node {
  name: "train/gradients/layer1/dropout/mul_1_grad/Reshape"
  op: "Reshape"
  input: "train/gradients/layer1/dropout/mul_1_grad/Sum"
  input: "train/gradients/layer1/dropout/mul_1_grad/Shape"
  attr {
    key: "T"
    value {
      type: DT_FLOAT
    }
  }
  attr {
    key: "_output_shapes"
    value {
      list {
        shape {
          unknown_rank: true
        }
      }
    }
  }
}
node {
  name: "train/gradients/layer1/dropout/mul_1_grad/mul_1"
  op: "Mul"
  input: "layer1/dropout/mul"
  input: "train/gradients/layer2/Wx_plus_b/MatMul_grad/tuple/control_dependency"
  attr {
    key: "T"
    value {
      type: DT_FLOAT
    }
  }
  attr {
    key: "_output_shapes"
    value {
      list {
        shape {
          unknown_rank: true
        }
      }
    }
  }
}
node {
  name: "train/gradients/layer1/dropout/mul_1_grad/Sum_1"
  op: "Sum"
  input: "train/gradients/layer1/dropout/mul_1_grad/mul_1"
  input: "train/gradients/layer1/dropout/mul_1_grad/BroadcastGradientArgs:1"
  attr {
    key: "T"
    value {
      type: DT_FLOAT
    }
  }
  attr {
    key: "_output_shapes"
    value {
      list {
        shape {
          unknown_rank: true
        }
      }
    }
  }
  attr {
    key: "keep_dims"
    value {
      b: false
    }
  }
}
node {
  name: "train/gradients/layer1/dropout/mul_1_grad/Reshape_1"
  op: "Reshape"
  input: "train/gradients/layer1/dropout/mul_1_grad/Sum_1"
  input: "train/gradients/layer1/dropout/mul_1_grad/Shape_1"
  attr {
    key: "T"
    value {
      type: DT_FLOAT
    }
  }
  attr {
    key: "_output_shapes"
    value {
      list {
        shape {
          unknown_rank: true
        }
      }
    }
  }
}
node {
  name: "train/gradients/layer1/dropout/mul_1_grad/tuple/group_deps"
  op: "NoOp"
  input: "^train/gradients/layer1/dropout/mul_1_grad/Reshape"
  input: "^train/gradients/layer1/dropout/mul_1_grad/Reshape_1"
}
node {
  name: "train/gradients/layer1/dropout/mul_1_grad/tuple/control_dependency"
  op: "Identity"
  input: "train/gradients/layer1/dropout/mul_1_grad/Reshape"
  input: "^train/gradients/layer1/dropout/mul_1_grad/tuple/group_deps"
  attr {
    key: "T"
    value {
      type: DT_FLOAT
    }
  }
  attr {
    key: "_class"
    value {
      list {
        s: "loc:@train/gradients/layer1/dropout/mul_1_grad/Reshape"
      }
    }
  }
  attr {
    key: "_output_shapes"
    value {
      list {
        shape {
          unknown_rank: true
        }
      }
    }
  }
}
node {
  name: "train/gradients/layer1/dropout/mul_1_grad/tuple/control_dependency_1"
  op: "Identity"
  input: "train/gradients/layer1/dropout/mul_1_grad/Reshape_1"
  input: "^train/gradients/layer1/dropout/mul_1_grad/tuple/group_deps"
  attr {
    key: "T"
    value {
      type: DT_FLOAT
    }
  }
  attr {
    key: "_class"
    value {
      list {
        s: "loc:@train/gradients/layer1/dropout/mul_1_grad/Reshape_1"
      }
    }
  }
  attr {
    key: "_output_shapes"
    value {
      list {
        shape {
          unknown_rank: true
        }
      }
    }
  }
}
node {
  name: "train/gradients/layer1/dropout/mul_grad/Shape"
  op: "Shape"
  input: "layer1/relu"
  attr {
    key: "T"
    value {
      type: DT_FLOAT
    }
  }
  attr {
    key: "_output_shapes"
    value {
      list {
        shape {
          dim {
            size: 2
          }
        }
      }
    }
  }
}
node {
  name: "train/gradients/layer1/dropout/mul_grad/Shape_1"
  op: "Shape"
  input: "layer1/dropout/Inv"
  attr {
    key: "T"
    value {
      type: DT_FLOAT
    }
  }
  attr {
    key: "_output_shapes"
    value {
      list {
        shape {
          dim {
            size: -1
          }
        }
      }
    }
  }
}
node {
  name: "train/gradients/layer1/dropout/mul_grad/BroadcastGradientArgs"
  op: "BroadcastGradientArgs"
  input: "train/gradients/layer1/dropout/mul_grad/Shape"
  input: "train/gradients/layer1/dropout/mul_grad/Shape_1"
  attr {
    key: "_output_shapes"
    value {
      list {
        shape {
          dim {
            size: -1
          }
        }
        shape {
          dim {
            size: -1
          }
        }
      }
    }
  }
}
node {
  name: "train/gradients/layer1/dropout/mul_grad/mul"
  op: "Mul"
  input: "train/gradients/layer1/dropout/mul_1_grad/tuple/control_dependency"
  input: "layer1/dropout/Inv"
  attr {
    key: "T"
    value {
      type: DT_FLOAT
    }
  }
  attr {
    key: "_output_shapes"
    value {
      list {
        shape {
          unknown_rank: true
        }
      }
    }
  }
}
node {
  name: "train/gradients/layer1/dropout/mul_grad/Sum"
  op: "Sum"
  input: "train/gradients/layer1/dropout/mul_grad/mul"
  input: "train/gradients/layer1/dropout/mul_grad/BroadcastGradientArgs"
  attr {
    key: "T"
    value {
      type: DT_FLOAT
    }
  }
  attr {
    key: "_output_shapes"
    value {
      list {
        shape {
          unknown_rank: true
        }
      }
    }
  }
  attr {
    key: "keep_dims"
    value {
      b: false
    }
  }
}
node {
  name: "train/gradients/layer1/dropout/mul_grad/Reshape"
  op: "Reshape"
  input: "train/gradients/layer1/dropout/mul_grad/Sum"
  input: "train/gradients/layer1/dropout/mul_grad/Shape"
  attr {
    key: "T"
    value {
      type: DT_FLOAT
    }
  }
  attr {
    key: "_output_shapes"
    value {
      list {
        shape {
          dim {
            size: -1
          }
          dim {
            size: -1
          }
        }
      }
    }
  }
}
node {
  name: "train/gradients/layer1/dropout/mul_grad/mul_1"
  op: "Mul"
  input: "layer1/relu"
  input: "train/gradients/layer1/dropout/mul_1_grad/tuple/control_dependency"
  attr {
    key: "T"
    value {
      type: DT_FLOAT
    }
  }
  attr {
    key: "_output_shapes"
    value {
      list {
        shape {
          unknown_rank: true
        }
      }
    }
  }
}
node {
  name: "train/gradients/layer1/dropout/mul_grad/Sum_1"
  op: "Sum"
  input: "train/gradients/layer1/dropout/mul_grad/mul_1"
  input: "train/gradients/layer1/dropout/mul_grad/BroadcastGradientArgs:1"
  attr {
    key: "T"
    value {
      type: DT_FLOAT
    }
  }
  attr {
    key: "_output_shapes"
    value {
      list {
        shape {
          unknown_rank: true
        }
      }
    }
  }
  attr {
    key: "keep_dims"
    value {
      b: false
    }
  }
}
node {
  name: "train/gradients/layer1/dropout/mul_grad/Reshape_1"
  op: "Reshape"
  input: "train/gradients/layer1/dropout/mul_grad/Sum_1"
  input: "train/gradients/layer1/dropout/mul_grad/Shape_1"
  attr {
    key: "T"
    value {
      type: DT_FLOAT
    }
  }
  attr {
    key: "_output_shapes"
    value {
      list {
        shape {
          unknown_rank: true
        }
      }
    }
  }
}
node {
  name: "train/gradients/layer1/dropout/mul_grad/tuple/group_deps"
  op: "NoOp"
  input: "^train/gradients/layer1/dropout/mul_grad/Reshape"
  input: "^train/gradients/layer1/dropout/mul_grad/Reshape_1"
}
node {
  name: "train/gradients/layer1/dropout/mul_grad/tuple/control_dependency"
  op: "Identity"
  input: "train/gradients/layer1/dropout/mul_grad/Reshape"
  input: "^train/gradients/layer1/dropout/mul_grad/tuple/group_deps"
  attr {
    key: "T"
    value {
      type: DT_FLOAT
    }
  }
  attr {
    key: "_class"
    value {
      list {
        s: "loc:@train/gradients/layer1/dropout/mul_grad/Reshape"
      }
    }
  }
  attr {
    key: "_output_shapes"
    value {
      list {
        shape {
          dim {
            size: -1
          }
          dim {
            size: -1
          }
        }
      }
    }
  }
}
node {
  name: "train/gradients/layer1/dropout/mul_grad/tuple/control_dependency_1"
  op: "Identity"
  input: "train/gradients/layer1/dropout/mul_grad/Reshape_1"
  input: "^train/gradients/layer1/dropout/mul_grad/tuple/group_deps"
  attr {
    key: "T"
    value {
      type: DT_FLOAT
    }
  }
  attr {
    key: "_class"
    value {
      list {
        s: "loc:@train/gradients/layer1/dropout/mul_grad/Reshape_1"
      }
    }
  }
  attr {
    key: "_output_shapes"
    value {
      list {
        shape {
          unknown_rank: true
        }
      }
    }
  }
}
node {
  name: "train/gradients/layer1/relu_grad/ReluGrad"
  op: "ReluGrad"
  input: "train/gradients/layer1/dropout/mul_grad/tuple/control_dependency"
  input: "layer1/relu"
  attr {
    key: "T"
    value {
      type: DT_FLOAT
    }
  }
  attr {
    key: "_output_shapes"
    value {
      list {
        shape {
          dim {
            size: -1
          }
          dim {
            size: 50
          }
        }
      }
    }
  }
}
node {
  name: "train/gradients/layer1/Wx_plus_b/add_grad/Shape"
  op: "Shape"
  input: "layer1/Wx_plus_b/MatMul"
  attr {
    key: "T"
    value {
      type: DT_FLOAT
    }
  }
  attr {
    key: "_output_shapes"
    value {
      list {
        shape {
          dim {
            size: 2
          }
        }
      }
    }
  }
}
node {
  name: "train/gradients/layer1/Wx_plus_b/add_grad/Shape_1"
  op: "Shape"
  input: "layer1/biases/Variable/read"
  attr {
    key: "T"
    value {
      type: DT_FLOAT
    }
  }
  attr {
    key: "_output_shapes"
    value {
      list {
        shape {
          dim {
            size: 1
          }
        }
      }
    }
  }
}
node {
  name: "train/gradients/layer1/Wx_plus_b/add_grad/BroadcastGradientArgs"
  op: "BroadcastGradientArgs"
  input: "train/gradients/layer1/Wx_plus_b/add_grad/Shape"
  input: "train/gradients/layer1/Wx_plus_b/add_grad/Shape_1"
  attr {
    key: "_output_shapes"
    value {
      list {
        shape {
          dim {
            size: -1
          }
        }
        shape {
          dim {
            size: -1
          }
        }
      }
    }
  }
}
node {
  name: "train/gradients/layer1/Wx_plus_b/add_grad/Sum"
  op: "Sum"
  input: "train/gradients/layer1/relu_grad/ReluGrad"
  input: "train/gradients/layer1/Wx_plus_b/add_grad/BroadcastGradientArgs"
  attr {
    key: "T"
    value {
      type: DT_FLOAT
    }
  }
  attr {
    key: "_output_shapes"
    value {
      list {
        shape {
          unknown_rank: true
        }
      }
    }
  }
  attr {
    key: "keep_dims"
    value {
      b: false
    }
  }
}
node {
  name: "train/gradients/layer1/Wx_plus_b/add_grad/Reshape"
  op: "Reshape"
  input: "train/gradients/layer1/Wx_plus_b/add_grad/Sum"
  input: "train/gradients/layer1/Wx_plus_b/add_grad/Shape"
  attr {
    key: "T"
    value {
      type: DT_FLOAT
    }
  }
  attr {
    key: "_output_shapes"
    value {
      list {
        shape {
          dim {
            size: -1
          }
          dim {
            size: -1
          }
        }
      }
    }
  }
}
node {
  name: "train/gradients/layer1/Wx_plus_b/add_grad/Sum_1"
  op: "Sum"
  input: "train/gradients/layer1/relu_grad/ReluGrad"
  input: "train/gradients/layer1/Wx_plus_b/add_grad/BroadcastGradientArgs:1"
  attr {
    key: "T"
    value {
      type: DT_FLOAT
    }
  }
  attr {
    key: "_output_shapes"
    value {
      list {
        shape {
          unknown_rank: true
        }
      }
    }
  }
  attr {
    key: "keep_dims"
    value {
      b: false
    }
  }
}
node {
  name: "train/gradients/layer1/Wx_plus_b/add_grad/Reshape_1"
  op: "Reshape"
  input: "train/gradients/layer1/Wx_plus_b/add_grad/Sum_1"
  input: "train/gradients/layer1/Wx_plus_b/add_grad/Shape_1"
  attr {
    key: "T"
    value {
      type: DT_FLOAT
    }
  }
  attr {
    key: "_output_shapes"
    value {
      list {
        shape {
          dim {
            size: 50
          }
        }
      }
    }
  }
}
node {
  name: "train/gradients/layer1/Wx_plus_b/add_grad/tuple/group_deps"
  op: "NoOp"
  input: "^train/gradients/layer1/Wx_plus_b/add_grad/Reshape"
  input: "^train/gradients/layer1/Wx_plus_b/add_grad/Reshape_1"
}
node {
  name: "train/gradients/layer1/Wx_plus_b/add_grad/tuple/control_dependency"
  op: "Identity"
  input: "train/gradients/layer1/Wx_plus_b/add_grad/Reshape"
  input: "^train/gradients/layer1/Wx_plus_b/add_grad/tuple/group_deps"
  attr {
    key: "T"
    value {
      type: DT_FLOAT
    }
  }
  attr {
    key: "_class"
    value {
      list {
        s: "loc:@train/gradients/layer1/Wx_plus_b/add_grad/Reshape"
      }
    }
  }
  attr {
    key: "_output_shapes"
    value {
      list {
        shape {
          dim {
            size: -1
          }
          dim {
            size: -1
          }
        }
      }
    }
  }
}
node {
  name: "train/gradients/layer1/Wx_plus_b/add_grad/tuple/control_dependency_1"
  op: "Identity"
  input: "train/gradients/layer1/Wx_plus_b/add_grad/Reshape_1"
  input: "^train/gradients/layer1/Wx_plus_b/add_grad/tuple/group_deps"
  attr {
    key: "T"
    value {
      type: DT_FLOAT
    }
  }
  attr {
    key: "_class"
    value {
      list {
        s: "loc:@train/gradients/layer1/Wx_plus_b/add_grad/Reshape_1"
      }
    }
  }
  attr {
    key: "_output_shapes"
    value {
      list {
        shape {
          dim {
            size: 50
          }
        }
      }
    }
  }
}
node {
  name: "train/gradients/layer1/Wx_plus_b/MatMul_grad/MatMul"
  op: "MatMul"
  input: "train/gradients/layer1/Wx_plus_b/add_grad/tuple/control_dependency"
  input: "layer1/weights/Variable/read"
  attr {
    key: "T"
    value {
      type: DT_FLOAT
    }
  }
  attr {
    key: "_output_shapes"
    value {
      list {
        shape {
          dim {
            size: -1
          }
          dim {
            size: 784
          }
        }
      }
    }
  }
  attr {
    key: "transpose_a"
    value {
      b: false
    }
  }
  attr {
    key: "transpose_b"
    value {
      b: true
    }
  }
}
node {
  name: "train/gradients/layer1/Wx_plus_b/MatMul_grad/MatMul_1"
  op: "MatMul"
  input: "input/x-input"
  input: "train/gradients/layer1/Wx_plus_b/add_grad/tuple/control_dependency"
  attr {
    key: "T"
    value {
      type: DT_FLOAT
    }
  }
  attr {
    key: "_output_shapes"
    value {
      list {
        shape {
          dim {
            size: 784
          }
          dim {
            size: -1
          }
        }
      }
    }
  }
  attr {
    key: "transpose_a"
    value {
      b: true
    }
  }
  attr {
    key: "transpose_b"
    value {
      b: false
    }
  }
}
node {
  name: "train/gradients/layer1/Wx_plus_b/MatMul_grad/tuple/group_deps"
  op: "NoOp"
  input: "^train/gradients/layer1/Wx_plus_b/MatMul_grad/MatMul"
  input: "^train/gradients/layer1/Wx_plus_b/MatMul_grad/MatMul_1"
}
node {
  name: "train/gradients/layer1/Wx_plus_b/MatMul_grad/tuple/control_dependency"
  op: "Identity"
  input: "train/gradients/layer1/Wx_plus_b/MatMul_grad/MatMul"
  input: "^train/gradients/layer1/Wx_plus_b/MatMul_grad/tuple/group_deps"
  attr {
    key: "T"
    value {
      type: DT_FLOAT
    }
  }
  attr {
    key: "_class"
    value {
      list {
        s: "loc:@train/gradients/layer1/Wx_plus_b/MatMul_grad/MatMul"
      }
    }
  }
  attr {
    key: "_output_shapes"
    value {
      list {
        shape {
          dim {
            size: -1
          }
          dim {
            size: 784
          }
        }
      }
    }
  }
}
node {
  name: "train/gradients/layer1/Wx_plus_b/MatMul_grad/tuple/control_dependency_1"
  op: "Identity"
  input: "train/gradients/layer1/Wx_plus_b/MatMul_grad/MatMul_1"
  input: "^train/gradients/layer1/Wx_plus_b/MatMul_grad/tuple/group_deps"
  attr {
    key: "T"
    value {
      type: DT_FLOAT
    }
  }
  attr {
    key: "_class"
    value {
      list {
        s: "loc:@train/gradients/layer1/Wx_plus_b/MatMul_grad/MatMul_1"
      }
    }
  }
  attr {
    key: "_output_shapes"
    value {
      list {
        shape {
          dim {
            size: 784
          }
          dim {
            size: -1
          }
        }
      }
    }
  }
}
node {
  name: "train/beta1_power/initial_value"
  op: "Const"
  attr {
    key: "_class"
    value {
      list {
        s: "loc:@layer1/weights/Variable"
      }
    }
  }
  attr {
    key: "_output_shapes"
    value {
      list {
        shape {
        }
      }
    }
  }
  attr {
    key: "dtype"
    value {
      type: DT_FLOAT
    }
  }
  attr {
    key: "value"
    value {
      tensor {
        dtype: DT_FLOAT
        tensor_shape {
        }
        float_val: 0.899999976158
      }
    }
  }
}
node {
  name: "train/beta1_power"
  op: "Variable"
  attr {
    key: "_class"
    value {
      list {
        s: "loc:@layer1/weights/Variable"
      }
    }
  }
  attr {
    key: "_output_shapes"
    value {
      list {
        shape {
        }
      }
    }
  }
  attr {
    key: "container"
    value {
      s: ""
    }
  }
  attr {
    key: "dtype"
    value {
      type: DT_FLOAT
    }
  }
  attr {
    key: "shape"
    value {
      shape {
      }
    }
  }
  attr {
    key: "shared_name"
    value {
      s: ""
    }
  }
}
node {
  name: "train/beta1_power/Assign"
  op: "Assign"
  input: "train/beta1_power"
  input: "train/beta1_power/initial_value"
  attr {
    key: "T"
    value {
      type: DT_FLOAT
    }
  }
  attr {
    key: "_class"
    value {
      list {
        s: "loc:@layer1/weights/Variable"
      }
    }
  }
  attr {
    key: "_output_shapes"
    value {
      list {
        shape {
        }
      }
    }
  }
  attr {
    key: "use_locking"
    value {
      b: true
    }
  }
  attr {
    key: "validate_shape"
    value {
      b: true
    }
  }
}
node {
  name: "train/beta1_power/read"
  op: "Identity"
  input: "train/beta1_power"
  attr {
    key: "T"
    value {
      type: DT_FLOAT
    }
  }
  attr {
    key: "_class"
    value {
      list {
        s: "loc:@layer1/weights/Variable"
      }
    }
  }
  attr {
    key: "_output_shapes"
    value {
      list {
        shape {
        }
      }
    }
  }
}
node {
  name: "train/beta2_power/initial_value"
  op: "Const"
  attr {
    key: "_class"
    value {
      list {
        s: "loc:@layer1/weights/Variable"
      }
    }
  }
  attr {
    key: "_output_shapes"
    value {
      list {
        shape {
        }
      }
    }
  }
  attr {
    key: "dtype"
    value {
      type: DT_FLOAT
    }
  }
  attr {
    key: "value"
    value {
      tensor {
        dtype: DT_FLOAT
        tensor_shape {
        }
        float_val: 0.999000012875
      }
    }
  }
}
node {
  name: "train/beta2_power"
  op: "Variable"
  attr {
    key: "_class"
    value {
      list {
        s: "loc:@layer1/weights/Variable"
      }
    }
  }
  attr {
    key: "_output_shapes"
    value {
      list {
        shape {
        }
      }
    }
  }
  attr {
    key: "container"
    value {
      s: ""
    }
  }
  attr {
    key: "dtype"
    value {
      type: DT_FLOAT
    }
  }
  attr {
    key: "shape"
    value {
      shape {
      }
    }
  }
  attr {
    key: "shared_name"
    value {
      s: ""
    }
  }
}
node {
  name: "train/beta2_power/Assign"
  op: "Assign"
  input: "train/beta2_power"
  input: "train/beta2_power/initial_value"
  attr {
    key: "T"
    value {
      type: DT_FLOAT
    }
  }
  attr {
    key: "_class"
    value {
      list {
        s: "loc:@layer1/weights/Variable"
      }
    }
  }
  attr {
    key: "_output_shapes"
    value {
      list {
        shape {
        }
      }
    }
  }
  attr {
    key: "use_locking"
    value {
      b: true
    }
  }
  attr {
    key: "validate_shape"
    value {
      b: true
    }
  }
}
node {
  name: "train/beta2_power/read"
  op: "Identity"
  input: "train/beta2_power"
  attr {
    key: "T"
    value {
      type: DT_FLOAT
    }
  }
  attr {
    key: "_class"
    value {
      list {
        s: "loc:@layer1/weights/Variable"
      }
    }
  }
  attr {
    key: "_output_shapes"
    value {
      list {
        shape {
        }
      }
    }
  }
}
node {
  name: "train/zeros"
  op: "Const"
  attr {
    key: "_output_shapes"
    value {
      list {
        shape {
          dim {
            size: 784
          }
          dim {
            size: 50
          }
        }
      }
    }
  }
  attr {
    key: "dtype"
    value {
      type: DT_FLOAT
    }
  }
  attr {
    key: "value"
    value {
      tensor {
        dtype: DT_FLOAT
        tensor_shape {
          dim {
            size: 784
          }
          dim {
            size: 50
          }
        }
        float_val: 0.0
      }
    }
  }
}
node {
  name: "train/layer1/weights/Variable/Adam"
  op: "Variable"
  attr {
    key: "_class"
    value {
      list {
        s: "loc:@layer1/weights/Variable"
      }
    }
  }
  attr {
    key: "_output_shapes"
    value {
      list {
        shape {
          dim {
            size: 784
          }
          dim {
            size: 50
          }
        }
      }
    }
  }
  attr {
    key: "container"
    value {
      s: ""
    }
  }
  attr {
    key: "dtype"
    value {
      type: DT_FLOAT
    }
  }
  attr {
    key: "shape"
    value {
      shape {
        dim {
          size: 784
        }
        dim {
          size: 50
        }
      }
    }
  }
  attr {
    key: "shared_name"
    value {
      s: ""
    }
  }
}
node {
  name: "train/layer1/weights/Variable/Adam/Assign"
  op: "Assign"
  input: "train/layer1/weights/Variable/Adam"
  input: "train/zeros"
  attr {
    key: "T"
    value {
      type: DT_FLOAT
    }
  }
  attr {
    key: "_class"
    value {
      list {
        s: "loc:@layer1/weights/Variable"
      }
    }
  }
  attr {
    key: "_output_shapes"
    value {
      list {
        shape {
          dim {
            size: 784
          }
          dim {
            size: 50
          }
        }
      }
    }
  }
  attr {
    key: "use_locking"
    value {
      b: true
    }
  }
  attr {
    key: "validate_shape"
    value {
      b: true
    }
  }
}
node {
  name: "train/layer1/weights/Variable/Adam/read"
  op: "Identity"
  input: "train/layer1/weights/Variable/Adam"
  attr {
    key: "T"
    value {
      type: DT_FLOAT
    }
  }
  attr {
    key: "_class"
    value {
      list {
        s: "loc:@layer1/weights/Variable"
      }
    }
  }
  attr {
    key: "_output_shapes"
    value {
      list {
        shape {
          dim {
            size: 784
          }
          dim {
            size: 50
          }
        }
      }
    }
  }
}
node {
  name: "train/zeros_1"
  op: "Const"
  attr {
    key: "_output_shapes"
    value {
      list {
        shape {
          dim {
            size: 784
          }
          dim {
            size: 50
          }
        }
      }
    }
  }
  attr {
    key: "dtype"
    value {
      type: DT_FLOAT
    }
  }
  attr {
    key: "value"
    value {
      tensor {
        dtype: DT_FLOAT
        tensor_shape {
          dim {
            size: 784
          }
          dim {
            size: 50
          }
        }
        float_val: 0.0
      }
    }
  }
}
node {
  name: "train/layer1/weights/Variable/Adam_1"
  op: "Variable"
  attr {
    key: "_class"
    value {
      list {
        s: "loc:@layer1/weights/Variable"
      }
    }
  }
  attr {
    key: "_output_shapes"
    value {
      list {
        shape {
          dim {
            size: 784
          }
          dim {
            size: 50
          }
        }
      }
    }
  }
  attr {
    key: "container"
    value {
      s: ""
    }
  }
  attr {
    key: "dtype"
    value {
      type: DT_FLOAT
    }
  }
  attr {
    key: "shape"
    value {
      shape {
        dim {
          size: 784
        }
        dim {
          size: 50
        }
      }
    }
  }
  attr {
    key: "shared_name"
    value {
      s: ""
    }
  }
}
node {
  name: "train/layer1/weights/Variable/Adam_1/Assign"
  op: "Assign"
  input: "train/layer1/weights/Variable/Adam_1"
  input: "train/zeros_1"
  attr {
    key: "T"
    value {
      type: DT_FLOAT
    }
  }
  attr {
    key: "_class"
    value {
      list {
        s: "loc:@layer1/weights/Variable"
      }
    }
  }
  attr {
    key: "_output_shapes"
    value {
      list {
        shape {
          dim {
            size: 784
          }
          dim {
            size: 50
          }
        }
      }
    }
  }
  attr {
    key: "use_locking"
    value {
      b: true
    }
  }
  attr {
    key: "validate_shape"
    value {
      b: true
    }
  }
}
node {
  name: "train/layer1/weights/Variable/Adam_1/read"
  op: "Identity"
  input: "train/layer1/weights/Variable/Adam_1"
  attr {
    key: "T"
    value {
      type: DT_FLOAT
    }
  }
  attr {
    key: "_class"
    value {
      list {
        s: "loc:@layer1/weights/Variable"
      }
    }
  }
  attr {
    key: "_output_shapes"
    value {
      list {
        shape {
          dim {
            size: 784
          }
          dim {
            size: 50
          }
        }
      }
    }
  }
}
node {
  name: "train/zeros_2"
  op: "Const"
  attr {
    key: "_output_shapes"
    value {
      list {
        shape {
          dim {
            size: 50
          }
        }
      }
    }
  }
  attr {
    key: "dtype"
    value {
      type: DT_FLOAT
    }
  }
  attr {
    key: "value"
    value {
      tensor {
        dtype: DT_FLOAT
        tensor_shape {
          dim {
            size: 50
          }
        }
        float_val: 0.0
      }
    }
  }
}
node {
  name: "train/layer1/biases/Variable/Adam"
  op: "Variable"
  attr {
    key: "_class"
    value {
      list {
        s: "loc:@layer1/biases/Variable"
      }
    }
  }
  attr {
    key: "_output_shapes"
    value {
      list {
        shape {
          dim {
            size: 50
          }
        }
      }
    }
  }
  attr {
    key: "container"
    value {
      s: ""
    }
  }
  attr {
    key: "dtype"
    value {
      type: DT_FLOAT
    }
  }
  attr {
    key: "shape"
    value {
      shape {
        dim {
          size: 50
        }
      }
    }
  }
  attr {
    key: "shared_name"
    value {
      s: ""
    }
  }
}
node {
  name: "train/layer1/biases/Variable/Adam/Assign"
  op: "Assign"
  input: "train/layer1/biases/Variable/Adam"
  input: "train/zeros_2"
  attr {
    key: "T"
    value {
      type: DT_FLOAT
    }
  }
  attr {
    key: "_class"
    value {
      list {
        s: "loc:@layer1/biases/Variable"
      }
    }
  }
  attr {
    key: "_output_shapes"
    value {
      list {
        shape {
          dim {
            size: 50
          }
        }
      }
    }
  }
  attr {
    key: "use_locking"
    value {
      b: true
    }
  }
  attr {
    key: "validate_shape"
    value {
      b: true
    }
  }
}
node {
  name: "train/layer1/biases/Variable/Adam/read"
  op: "Identity"
  input: "train/layer1/biases/Variable/Adam"
  attr {
    key: "T"
    value {
      type: DT_FLOAT
    }
  }
  attr {
    key: "_class"
    value {
      list {
        s: "loc:@layer1/biases/Variable"
      }
    }
  }
  attr {
    key: "_output_shapes"
    value {
      list {
        shape {
          dim {
            size: 50
          }
        }
      }
    }
  }
}
node {
  name: "train/zeros_3"
  op: "Const"
  attr {
    key: "_output_shapes"
    value {
      list {
        shape {
          dim {
            size: 50
          }
        }
      }
    }
  }
  attr {
    key: "dtype"
    value {
      type: DT_FLOAT
    }
  }
  attr {
    key: "value"
    value {
      tensor {
        dtype: DT_FLOAT
        tensor_shape {
          dim {
            size: 50
          }
        }
        float_val: 0.0
      }
    }
  }
}
node {
  name: "train/layer1/biases/Variable/Adam_1"
  op: "Variable"
  attr {
    key: "_class"
    value {
      list {
        s: "loc:@layer1/biases/Variable"
      }
    }
  }
  attr {
    key: "_output_shapes"
    value {
      list {
        shape {
          dim {
            size: 50
          }
        }
      }
    }
  }
  attr {
    key: "container"
    value {
      s: ""
    }
  }
  attr {
    key: "dtype"
    value {
      type: DT_FLOAT
    }
  }
  attr {
    key: "shape"
    value {
      shape {
        dim {
          size: 50
        }
      }
    }
  }
  attr {
    key: "shared_name"
    value {
      s: ""
    }
  }
}
node {
  name: "train/layer1/biases/Variable/Adam_1/Assign"
  op: "Assign"
  input: "train/layer1/biases/Variable/Adam_1"
  input: "train/zeros_3"
  attr {
    key: "T"
    value {
      type: DT_FLOAT
    }
  }
  attr {
    key: "_class"
    value {
      list {
        s: "loc:@layer1/biases/Variable"
      }
    }
  }
  attr {
    key: "_output_shapes"
    value {
      list {
        shape {
          dim {
            size: 50
          }
        }
      }
    }
  }
  attr {
    key: "use_locking"
    value {
      b: true
    }
  }
  attr {
    key: "validate_shape"
    value {
      b: true
    }
  }
}
node {
  name: "train/layer1/biases/Variable/Adam_1/read"
  op: "Identity"
  input: "train/layer1/biases/Variable/Adam_1"
  attr {
    key: "T"
    value {
      type: DT_FLOAT
    }
  }
  attr {
    key: "_class"
    value {
      list {
        s: "loc:@layer1/biases/Variable"
      }
    }
  }
  attr {
    key: "_output_shapes"
    value {
      list {
        shape {
          dim {
            size: 50
          }
        }
      }
    }
  }
}
node {
  name: "train/zeros_4"
  op: "Const"
  attr {
    key: "_output_shapes"
    value {
      list {
        shape {
          dim {
            size: 50
          }
          dim {
            size: 10
          }
        }
      }
    }
  }
  attr {
    key: "dtype"
    value {
      type: DT_FLOAT
    }
  }
  attr {
    key: "value"
    value {
      tensor {
        dtype: DT_FLOAT
        tensor_shape {
          dim {
            size: 50
          }
          dim {
            size: 10
          }
        }
        float_val: 0.0
      }
    }
  }
}
node {
  name: "train/layer2/weights/Variable/Adam"
  op: "Variable"
  attr {
    key: "_class"
    value {
      list {
        s: "loc:@layer2/weights/Variable"
      }
    }
  }
  attr {
    key: "_output_shapes"
    value {
      list {
        shape {
          dim {
            size: 50
          }
          dim {
            size: 10
          }
        }
      }
    }
  }
  attr {
    key: "container"
    value {
      s: ""
    }
  }
  attr {
    key: "dtype"
    value {
      type: DT_FLOAT
    }
  }
  attr {
    key: "shape"
    value {
      shape {
        dim {
          size: 50
        }
        dim {
          size: 10
        }
      }
    }
  }
  attr {
    key: "shared_name"
    value {
      s: ""
    }
  }
}
node {
  name: "train/layer2/weights/Variable/Adam/Assign"
  op: "Assign"
  input: "train/layer2/weights/Variable/Adam"
  input: "train/zeros_4"
  attr {
    key: "T"
    value {
      type: DT_FLOAT
    }
  }
  attr {
    key: "_class"
    value {
      list {
        s: "loc:@layer2/weights/Variable"
      }
    }
  }
  attr {
    key: "_output_shapes"
    value {
      list {
        shape {
          dim {
            size: 50
          }
          dim {
            size: 10
          }
        }
      }
    }
  }
  attr {
    key: "use_locking"
    value {
      b: true
    }
  }
  attr {
    key: "validate_shape"
    value {
      b: true
    }
  }
}
node {
  name: "train/layer2/weights/Variable/Adam/read"
  op: "Identity"
  input: "train/layer2/weights/Variable/Adam"
  attr {
    key: "T"
    value {
      type: DT_FLOAT
    }
  }
  attr {
    key: "_class"
    value {
      list {
        s: "loc:@layer2/weights/Variable"
      }
    }
  }
  attr {
    key: "_output_shapes"
    value {
      list {
        shape {
          dim {
            size: 50
          }
          dim {
            size: 10
          }
        }
      }
    }
  }
}
node {
  name: "train/zeros_5"
  op: "Const"
  attr {
    key: "_output_shapes"
    value {
      list {
        shape {
          dim {
            size: 50
          }
          dim {
            size: 10
          }
        }
      }
    }
  }
  attr {
    key: "dtype"
    value {
      type: DT_FLOAT
    }
  }
  attr {
    key: "value"
    value {
      tensor {
        dtype: DT_FLOAT
        tensor_shape {
          dim {
            size: 50
          }
          dim {
            size: 10
          }
        }
        float_val: 0.0
      }
    }
  }
}
node {
  name: "train/layer2/weights/Variable/Adam_1"
  op: "Variable"
  attr {
    key: "_class"
    value {
      list {
        s: "loc:@layer2/weights/Variable"
      }
    }
  }
  attr {
    key: "_output_shapes"
    value {
      list {
        shape {
          dim {
            size: 50
          }
          dim {
            size: 10
          }
        }
      }
    }
  }
  attr {
    key: "container"
    value {
      s: ""
    }
  }
  attr {
    key: "dtype"
    value {
      type: DT_FLOAT
    }
  }
  attr {
    key: "shape"
    value {
      shape {
        dim {
          size: 50
        }
        dim {
          size: 10
        }
      }
    }
  }
  attr {
    key: "shared_name"
    value {
      s: ""
    }
  }
}
node {
  name: "train/layer2/weights/Variable/Adam_1/Assign"
  op: "Assign"
  input: "train/layer2/weights/Variable/Adam_1"
  input: "train/zeros_5"
  attr {
    key: "T"
    value {
      type: DT_FLOAT
    }
  }
  attr {
    key: "_class"
    value {
      list {
        s: "loc:@layer2/weights/Variable"
      }
    }
  }
  attr {
    key: "_output_shapes"
    value {
      list {
        shape {
          dim {
            size: 50
          }
          dim {
            size: 10
          }
        }
      }
    }
  }
  attr {
    key: "use_locking"
    value {
      b: true
    }
  }
  attr {
    key: "validate_shape"
    value {
      b: true
    }
  }
}
node {
  name: "train/layer2/weights/Variable/Adam_1/read"
  op: "Identity"
  input: "train/layer2/weights/Variable/Adam_1"
  attr {
    key: "T"
    value {
      type: DT_FLOAT
    }
  }
  attr {
    key: "_class"
    value {
      list {
        s: "loc:@layer2/weights/Variable"
      }
    }
  }
  attr {
    key: "_output_shapes"
    value {
      list {
        shape {
          dim {
            size: 50
          }
          dim {
            size: 10
          }
        }
      }
    }
  }
}
node {
  name: "train/zeros_6"
  op: "Const"
  attr {
    key: "_output_shapes"
    value {
      list {
        shape {
          dim {
            size: 10
          }
        }
      }
    }
  }
  attr {
    key: "dtype"
    value {
      type: DT_FLOAT
    }
  }
  attr {
    key: "value"
    value {
      tensor {
        dtype: DT_FLOAT
        tensor_shape {
          dim {
            size: 10
          }
        }
        float_val: 0.0
      }
    }
  }
}
node {
  name: "train/layer2/biases/Variable/Adam"
  op: "Variable"
  attr {
    key: "_class"
    value {
      list {
        s: "loc:@layer2/biases/Variable"
      }
    }
  }
  attr {
    key: "_output_shapes"
    value {
      list {
        shape {
          dim {
            size: 10
          }
        }
      }
    }
  }
  attr {
    key: "container"
    value {
      s: ""
    }
  }
  attr {
    key: "dtype"
    value {
      type: DT_FLOAT
    }
  }
  attr {
    key: "shape"
    value {
      shape {
        dim {
          size: 10
        }
      }
    }
  }
  attr {
    key: "shared_name"
    value {
      s: ""
    }
  }
}
node {
  name: "train/layer2/biases/Variable/Adam/Assign"
  op: "Assign"
  input: "train/layer2/biases/Variable/Adam"
  input: "train/zeros_6"
  attr {
    key: "T"
    value {
      type: DT_FLOAT
    }
  }
  attr {
    key: "_class"
    value {
      list {
        s: "loc:@layer2/biases/Variable"
      }
    }
  }
  attr {
    key: "_output_shapes"
    value {
      list {
        shape {
          dim {
            size: 10
          }
        }
      }
    }
  }
  attr {
    key: "use_locking"
    value {
      b: true
    }
  }
  attr {
    key: "validate_shape"
    value {
      b: true
    }
  }
}
node {
  name: "train/layer2/biases/Variable/Adam/read"
  op: "Identity"
  input: "train/layer2/biases/Variable/Adam"
  attr {
    key: "T"
    value {
      type: DT_FLOAT
    }
  }
  attr {
    key: "_class"
    value {
      list {
        s: "loc:@layer2/biases/Variable"
      }
    }
  }
  attr {
    key: "_output_shapes"
    value {
      list {
        shape {
          dim {
            size: 10
          }
        }
      }
    }
  }
}
node {
  name: "train/zeros_7"
  op: "Const"
  attr {
    key: "_output_shapes"
    value {
      list {
        shape {
          dim {
            size: 10
          }
        }
      }
    }
  }
  attr {
    key: "dtype"
    value {
      type: DT_FLOAT
    }
  }
  attr {
    key: "value"
    value {
      tensor {
        dtype: DT_FLOAT
        tensor_shape {
          dim {
            size: 10
          }
        }
        float_val: 0.0
      }
    }
  }
}
node {
  name: "train/layer2/biases/Variable/Adam_1"
  op: "Variable"
  attr {
    key: "_class"
    value {
      list {
        s: "loc:@layer2/biases/Variable"
      }
    }
  }
  attr {
    key: "_output_shapes"
    value {
      list {
        shape {
          dim {
            size: 10
          }
        }
      }
    }
  }
  attr {
    key: "container"
    value {
      s: ""
    }
  }
  attr {
    key: "dtype"
    value {
      type: DT_FLOAT
    }
  }
  attr {
    key: "shape"
    value {
      shape {
        dim {
          size: 10
        }
      }
    }
  }
  attr {
    key: "shared_name"
    value {
      s: ""
    }
  }
}
node {
  name: "train/layer2/biases/Variable/Adam_1/Assign"
  op: "Assign"
  input: "train/layer2/biases/Variable/Adam_1"
  input: "train/zeros_7"
  attr {
    key: "T"
    value {
      type: DT_FLOAT
    }
  }
  attr {
    key: "_class"
    value {
      list {
        s: "loc:@layer2/biases/Variable"
      }
    }
  }
  attr {
    key: "_output_shapes"
    value {
      list {
        shape {
          dim {
            size: 10
          }
        }
      }
    }
  }
  attr {
    key: "use_locking"
    value {
      b: true
    }
  }
  attr {
    key: "validate_shape"
    value {
      b: true
    }
  }
}
node {
  name: "train/layer2/biases/Variable/Adam_1/read"
  op: "Identity"
  input: "train/layer2/biases/Variable/Adam_1"
  attr {
    key: "T"
    value {
      type: DT_FLOAT
    }
  }
  attr {
    key: "_class"
    value {
      list {
        s: "loc:@layer2/biases/Variable"
      }
    }
  }
  attr {
    key: "_output_shapes"
    value {
      list {
        shape {
          dim {
            size: 10
          }
        }
      }
    }
  }
}
node {
  name: "train/Adam/learning_rate"
  op: "Const"
  attr {
    key: "_output_shapes"
    value {
      list {
        shape {
        }
      }
    }
  }
  attr {
    key: "dtype"
    value {
      type: DT_FLOAT
    }
  }
  attr {
    key: "value"
    value {
      tensor {
        dtype: DT_FLOAT
        tensor_shape {
        }
        float_val: 0.00999999977648
      }
    }
  }
}
node {
  name: "train/Adam/beta1"
  op: "Const"
  attr {
    key: "_output_shapes"
    value {
      list {
        shape {
        }
      }
    }
  }
  attr {
    key: "dtype"
    value {
      type: DT_FLOAT
    }
  }
  attr {
    key: "value"
    value {
      tensor {
        dtype: DT_FLOAT
        tensor_shape {
        }
        float_val: 0.899999976158
      }
    }
  }
}
node {
  name: "train/Adam/beta2"
  op: "Const"
  attr {
    key: "_output_shapes"
    value {
      list {
        shape {
        }
      }
    }
  }
  attr {
    key: "dtype"
    value {
      type: DT_FLOAT
    }
  }
  attr {
    key: "value"
    value {
      tensor {
        dtype: DT_FLOAT
        tensor_shape {
        }
        float_val: 0.999000012875
      }
    }
  }
}
node {
  name: "train/Adam/epsilon"
  op: "Const"
  attr {
    key: "_output_shapes"
    value {
      list {
        shape {
        }
      }
    }
  }
  attr {
    key: "dtype"
    value {
      type: DT_FLOAT
    }
  }
  attr {
    key: "value"
    value {
      tensor {
        dtype: DT_FLOAT
        tensor_shape {
        }
        float_val: 9.99999993923e-09
      }
    }
  }
}
node {
  name: "train/Adam/update_layer1/weights/Variable/ApplyAdam"
  op: "ApplyAdam"
  input: "layer1/weights/Variable"
  input: "train/layer1/weights/Variable/Adam"
  input: "train/layer1/weights/Variable/Adam_1"
  input: "train/beta1_power/read"
  input: "train/beta2_power/read"
  input: "train/Adam/learning_rate"
  input: "train/Adam/beta1"
  input: "train/Adam/beta2"
  input: "train/Adam/epsilon"
  input: "train/gradients/layer1/Wx_plus_b/MatMul_grad/tuple/control_dependency_1"
  attr {
    key: "T"
    value {
      type: DT_FLOAT
    }
  }
  attr {
    key: "_class"
    value {
      list {
        s: "loc:@layer1/weights/Variable"
      }
    }
  }
  attr {
    key: "_output_shapes"
    value {
      list {
        shape {
          dim {
            size: 784
          }
          dim {
            size: 50
          }
        }
      }
    }
  }
  attr {
    key: "use_locking"
    value {
      b: false
    }
  }
}
node {
  name: "train/Adam/update_layer1/biases/Variable/ApplyAdam"
  op: "ApplyAdam"
  input: "layer1/biases/Variable"
  input: "train/layer1/biases/Variable/Adam"
  input: "train/layer1/biases/Variable/Adam_1"
  input: "train/beta1_power/read"
  input: "train/beta2_power/read"
  input: "train/Adam/learning_rate"
  input: "train/Adam/beta1"
  input: "train/Adam/beta2"
  input: "train/Adam/epsilon"
  input: "train/gradients/layer1/Wx_plus_b/add_grad/tuple/control_dependency_1"
  attr {
    key: "T"
    value {
      type: DT_FLOAT
    }
  }
  attr {
    key: "_class"
    value {
      list {
        s: "loc:@layer1/biases/Variable"
      }
    }
  }
  attr {
    key: "_output_shapes"
    value {
      list {
        shape {
          dim {
            size: 50
          }
        }
      }
    }
  }
  attr {
    key: "use_locking"
    value {
      b: false
    }
  }
}
node {
  name: "train/Adam/update_layer2/weights/Variable/ApplyAdam"
  op: "ApplyAdam"
  input: "layer2/weights/Variable"
  input: "train/layer2/weights/Variable/Adam"
  input: "train/layer2/weights/Variable/Adam_1"
  input: "train/beta1_power/read"
  input: "train/beta2_power/read"
  input: "train/Adam/learning_rate"
  input: "train/Adam/beta1"
  input: "train/Adam/beta2"
  input: "train/Adam/epsilon"
  input: "train/gradients/layer2/Wx_plus_b/MatMul_grad/tuple/control_dependency_1"
  attr {
    key: "T"
    value {
      type: DT_FLOAT
    }
  }
  attr {
    key: "_class"
    value {
      list {
        s: "loc:@layer2/weights/Variable"
      }
    }
  }
  attr {
    key: "_output_shapes"
    value {
      list {
        shape {
          dim {
            size: 50
          }
          dim {
            size: 10
          }
        }
      }
    }
  }
  attr {
    key: "use_locking"
    value {
      b: false
    }
  }
}
node {
  name: "train/Adam/update_layer2/biases/Variable/ApplyAdam"
  op: "ApplyAdam"
  input: "layer2/biases/Variable"
  input: "train/layer2/biases/Variable/Adam"
  input: "train/layer2/biases/Variable/Adam_1"
  input: "train/beta1_power/read"
  input: "train/beta2_power/read"
  input: "train/Adam/learning_rate"
  input: "train/Adam/beta1"
  input: "train/Adam/beta2"
  input: "train/Adam/epsilon"
  input: "train/gradients/layer2/Wx_plus_b/add_grad/tuple/control_dependency_1"
  attr {
    key: "T"
    value {
      type: DT_FLOAT
    }
  }
  attr {
    key: "_class"
    value {
      list {
        s: "loc:@layer2/biases/Variable"
      }
    }
  }
  attr {
    key: "_output_shapes"
    value {
      list {
        shape {
          dim {
            size: 10
          }
        }
      }
    }
  }
  attr {
    key: "use_locking"
    value {
      b: false
    }
  }
}
node {
  name: "train/Adam/mul"
  op: "Mul"
  input: "train/beta1_power/read"
  input: "train/Adam/beta1"
  input: "^train/Adam/update_layer1/weights/Variable/ApplyAdam"
  input: "^train/Adam/update_layer1/biases/Variable/ApplyAdam"
  input: "^train/Adam/update_layer2/weights/Variable/ApplyAdam"
  input: "^train/Adam/update_layer2/biases/Variable/ApplyAdam"
  attr {
    key: "T"
    value {
      type: DT_FLOAT
    }
  }
  attr {
    key: "_class"
    value {
      list {
        s: "loc:@layer1/weights/Variable"
      }
    }
  }
  attr {
    key: "_output_shapes"
    value {
      list {
        shape {
        }
      }
    }
  }
}
node {
  name: "train/Adam/Assign"
  op: "Assign"
  input: "train/beta1_power"
  input: "train/Adam/mul"
  attr {
    key: "T"
    value {
      type: DT_FLOAT
    }
  }
  attr {
    key: "_class"
    value {
      list {
        s: "loc:@layer1/weights/Variable"
      }
    }
  }
  attr {
    key: "_output_shapes"
    value {
      list {
        shape {
        }
      }
    }
  }
  attr {
    key: "use_locking"
    value {
      b: false
    }
  }
  attr {
    key: "validate_shape"
    value {
      b: true
    }
  }
}
node {
  name: "train/Adam/mul_1"
  op: "Mul"
  input: "train/beta2_power/read"
  input: "train/Adam/beta2"
  input: "^train/Adam/update_layer1/weights/Variable/ApplyAdam"
  input: "^train/Adam/update_layer1/biases/Variable/ApplyAdam"
  input: "^train/Adam/update_layer2/weights/Variable/ApplyAdam"
  input: "^train/Adam/update_layer2/biases/Variable/ApplyAdam"
  attr {
    key: "T"
    value {
      type: DT_FLOAT
    }
  }
  attr {
    key: "_class"
    value {
      list {
        s: "loc:@layer1/weights/Variable"
      }
    }
  }
  attr {
    key: "_output_shapes"
    value {
      list {
        shape {
        }
      }
    }
  }
}
node {
  name: "train/Adam/Assign_1"
  op: "Assign"
  input: "train/beta2_power"
  input: "train/Adam/mul_1"
  attr {
    key: "T"
    value {
      type: DT_FLOAT
    }
  }
  attr {
    key: "_class"
    value {
      list {
        s: "loc:@layer1/weights/Variable"
      }
    }
  }
  attr {
    key: "_output_shapes"
    value {
      list {
        shape {
        }
      }
    }
  }
  attr {
    key: "use_locking"
    value {
      b: false
    }
  }
  attr {
    key: "validate_shape"
    value {
      b: true
    }
  }
}
node {
  name: "train/Adam"
  op: "NoOp"
  input: "^train/Adam/update_layer1/weights/Variable/ApplyAdam"
  input: "^train/Adam/update_layer1/biases/Variable/ApplyAdam"
  input: "^train/Adam/update_layer2/weights/Variable/ApplyAdam"
  input: "^train/Adam/update_layer2/biases/Variable/ApplyAdam"
  input: "^train/Adam/Assign"
  input: "^train/Adam/Assign_1"
}
node {
  name: "accuracy/correct_prediction/ArgMax/dimension"
  op: "Const"
  attr {
    key: "_output_shapes"
    value {
      list {
        shape {
        }
      }
    }
  }
  attr {
    key: "dtype"
    value {
      type: DT_INT32
    }
  }
  attr {
    key: "value"
    value {
      tensor {
        dtype: DT_INT32
        tensor_shape {
        }
        int_val: 1
      }
    }
  }
}
node {
  name: "accuracy/correct_prediction/ArgMax"
  op: "ArgMax"
  input: "predictions"
  input: "accuracy/correct_prediction/ArgMax/dimension"
  attr {
    key: "T"
    value {
      type: DT_FLOAT
    }
  }
  attr {
    key: "_output_shapes"
    value {
      list {
        shape {
          dim {
            size: -1
          }
        }
      }
    }
  }
}
node {
  name: "accuracy/correct_prediction/ArgMax_1/dimension"
  op: "Const"
  attr {
    key: "_output_shapes"
    value {
      list {
        shape {
        }
      }
    }
  }
  attr {
    key: "dtype"
    value {
      type: DT_INT32
    }
  }
  attr {
    key: "value"
    value {
      tensor {
        dtype: DT_INT32
        tensor_shape {
        }
        int_val: 1
      }
    }
  }
}
node {
  name: "accuracy/correct_prediction/ArgMax_1"
  op: "ArgMax"
  input: "input/y-input"
  input: "accuracy/correct_prediction/ArgMax_1/dimension"
  attr {
    key: "T"
    value {
      type: DT_FLOAT
    }
  }
  attr {
    key: "_output_shapes"
    value {
      list {
        shape {
          dim {
            size: -1
          }
        }
      }
    }
  }
}
node {
  name: "accuracy/correct_prediction/Equal"
  op: "Equal"
  input: "accuracy/correct_prediction/ArgMax"
  input: "accuracy/correct_prediction/ArgMax_1"
  attr {
    key: "T"
    value {
      type: DT_INT64
    }
  }
  attr {
    key: "_output_shapes"
    value {
      list {
        shape {
          dim {
            size: -1
          }
        }
      }
    }
  }
}
node {
  name: "accuracy/accuracy/Cast"
  op: "Cast"
  input: "accuracy/correct_prediction/Equal"
  attr {
    key: "DstT"
    value {
      type: DT_FLOAT
    }
  }
  attr {
    key: "SrcT"
    value {
      type: DT_BOOL
    }
  }
  attr {
    key: "_output_shapes"
    value {
      list {
        shape {
          dim {
            size: -1
          }
        }
      }
    }
  }
}
node {
  name: "accuracy/accuracy/Rank"
  op: "Rank"
  input: "accuracy/accuracy/Cast"
  attr {
    key: "T"
    value {
      type: DT_FLOAT
    }
  }
  attr {
    key: "_output_shapes"
    value {
      list {
        shape {
        }
      }
    }
  }
}
node {
  name: "accuracy/accuracy/range/start"
  op: "Const"
  attr {
    key: "_output_shapes"
    value {
      list {
        shape {
        }
      }
    }
  }
  attr {
    key: "dtype"
    value {
      type: DT_INT32
    }
  }
  attr {
    key: "value"
    value {
      tensor {
        dtype: DT_INT32
        tensor_shape {
        }
        int_val: 0
      }
    }
  }
}
node {
  name: "accuracy/accuracy/range/delta"
  op: "Const"
  attr {
    key: "_output_shapes"
    value {
      list {
        shape {
        }
      }
    }
  }
  attr {
    key: "dtype"
    value {
      type: DT_INT32
    }
  }
  attr {
    key: "value"
    value {
      tensor {
        dtype: DT_INT32
        tensor_shape {
        }
        int_val: 1
      }
    }
  }
}
node {
  name: "accuracy/accuracy/range"
  op: "Range"
  input: "accuracy/accuracy/range/start"
  input: "accuracy/accuracy/Rank"
  input: "accuracy/accuracy/range/delta"
  attr {
    key: "_output_shapes"
    value {
      list {
        shape {
          dim {
            size: 1
          }
        }
      }
    }
  }
}
node {
  name: "accuracy/accuracy/Mean"
  op: "Mean"
  input: "accuracy/accuracy/Cast"
  input: "accuracy/accuracy/range"
  attr {
    key: "T"
    value {
      type: DT_FLOAT
    }
  }
  attr {
    key: "_output_shapes"
    value {
      list {
        shape {
        }
      }
    }
  }
  attr {
    key: "keep_dims"
    value {
      b: false
    }
  }
}
node {
  name: "accuracy/ScalarSummary/tags"
  op: "Const"
  attr {
    key: "_output_shapes"
    value {
      list {
        shape {
        }
      }
    }
  }
  attr {
    key: "dtype"
    value {
      type: DT_STRING
    }
  }
  attr {
    key: "value"
    value {
      tensor {
        dtype: DT_STRING
        tensor_shape {
        }
        string_val: "accuracy"
      }
    }
  }
}
node {
  name: "accuracy/ScalarSummary"
  op: "ScalarSummary"
  input: "accuracy/ScalarSummary/tags"
  input: "accuracy/accuracy/Mean"
  attr {
    key: "T"
    value {
      type: DT_FLOAT
    }
  }
  attr {
    key: "_output_shapes"
    value {
      list {
        shape {
        }
      }
    }
  }
}
node {
  name: "MergeSummary/MergeSummary"
  op: "MergeSummary"
  input: "input/ImageSummary"
  input: "input/ScalarSummary"
  input: "layer1/weights/summaries/ScalarSummary"
  input: "layer1/weights/summaries/ScalarSummary_1"
  input: "layer1/weights/summaries/ScalarSummary_2"
  input: "layer1/weights/summaries/ScalarSummary_3"
  input: "layer1/weights/summaries/HistogramSummary"
  input: "layer1/biases/summaries/ScalarSummary"
  input: "layer1/biases/summaries/ScalarSummary_1"
  input: "layer1/biases/summaries/ScalarSummary_2"
  input: "layer1/biases/summaries/ScalarSummary_3"
  input: "layer1/biases/summaries/HistogramSummary"
  input: "layer1/Wx_plus_b/HistogramSummary"
  input: "layer1/HistogramSummary"
  input: "layer2/weights/summaries/ScalarSummary"
  input: "layer2/weights/summaries/ScalarSummary_1"
  input: "layer2/weights/summaries/ScalarSummary_2"
  input: "layer2/weights/summaries/ScalarSummary_3"
  input: "layer2/weights/summaries/HistogramSummary"
  input: "layer2/biases/summaries/ScalarSummary"
  input: "layer2/biases/summaries/ScalarSummary_1"
  input: "layer2/biases/summaries/ScalarSummary_2"
  input: "layer2/biases/summaries/ScalarSummary_3"
  input: "layer2/biases/summaries/HistogramSummary"
  input: "layer2/Wx_plus_b/HistogramSummary"
  input: "layer2/HistogramSummary"
  input: "cross_entropy/ScalarSummary"
  input: "accuracy/ScalarSummary"
  attr {
    key: "N"
    value {
      i: 28
    }
  }
  attr {
    key: "_output_shapes"
    value {
      list {
        shape {
        }
      }
    }
  }
}
versions {
  producer: 9
}
